Codes/Meta-GCN/Data/PredictResult/save3/1/model.pkl (torch, 20895 bytes, 4 tensors)

gc1.weight f4 [1207, 4]
00000000: a74c 9c3d cfeb 28bd 6505 55bd de40 843d
00000010: e317 393c 3c9d 033c d2e5 9d3c 7863 dc3b
00000020: a0ef 09bc 454f 853c 7f76 983c 4f98 28bc
00000030: 864d 3e3c d354 7b3b 0663 c23b d1dc 903c
00000040: 8291 233c ec0f 4f3d 0062 4e3d 87de 823c
00000050: b4be 953c bcd2 833b 3f9f cb3a 4bf5 5d3c
00000060: 6fbf 52bc 5b10 673d 7c52 953d 9a4e 69bc
00000070: 7c79 80bc 0efe 6c3c fbe4 4e3c 513f 09bc
00000080: 607e a2bb 8f70 953b 78d4 073c eb52 12bc
00000090: ec83 c63c 46f3 d1bb ee31 14bc 8671 723c
000000a0: 85c3 153c 2b9d 68ba 4c18 1039 bd8c 9f39
000000b0: f68b 923b a63b 8d3c 7fac 813c c5b2 48bb
000000c0: 7d7e 833c aad3 1bbb 886a 8abb 9afb 833c
000000d0: ad7c 9a3d 56c0 4ebd 13d7 41bd 0268 973d
000000e0: 8060 51ba be8e be3a 30e7 a9b9 b45f 72ba
000000f0: 8bfb 2bbc 2d13 ee3c af61 033d 2e91 e7bb
00000100: d3dc 1bbc 70ea f23c 3cdc c33c e2c0 38bc
00000110: ad65 69bc 4aa0 a73c 3c9c a63c ee15 5ebc
00000120: 5a33 2f3b 5cf0 6fba 0bf4 b8bb e61c aa3b
00000130: 7569 ae3c d266 b0bc f973 eebc 08ea ca3c
00000140: 509d f0bc ffb3 e03d d08c d93d a3b2 f9bc
00000150: 1fe6 34bc 29f0 c83c 909f b83c 07f7 28bc
00000160: 0208 633d 7832 06bd 92ee 22bd 3d8a 753d
00000170: 22a2 dc3d 68a4 b1bd b54f 9cbd c6b2 e73d
00000180: 3859 cc3c 6491 e9bb 83ac 20bc 8c87 883c
00000190: 6f8f 67bc b554 6a3d e4a5 5a3d 1783 4dbc
000001a0: 8cde 003e a0a4 8dbd fa06 97bd 028e fc3d
000001b0: d58f bcbb 3a4a e83c f7c6 ec3c d451 07bc
000001c0: b7c4 2dbd 2f52 ea3d 5089 003e 7031 05bd
000001d0: 1a35 d23d d56a 99bd b43d 9cbd 8c3b d33d
000001e0: 4a24 c9bc 41ad f33d 570b f63d 8895 d0bc
000001f0: 1b40 103e 79e6 96bd ec23 70bd cad7 0f3e
00000200: 2a4a 01bc 00d5 6e3c be19 9b3c e87a 25bc
00000210: 4de3 2d3e abb9 9bbd a3d8 9fbd c2e6 3e3e
00000220: 01d1 853d 0885 e3bc 8b37 05bd bf77 6e3d
00000230: 5ae3 1e3c 4229 1dbc 452d 37bc a82b 2c3c
00000240: 1c1a 8cba b734 903c 67f4 2d3c 37ca 9cbb
00000250: 8272 823d f873 dabc 54aa f6bc d6bc 853d
00000260: 7640 9d3a a294 b53c 6757 f13c b7f7 4ab9
00000270: 8986 433e e6ff 87bd e0ff 5cbd 9e76 3d3e
00000280: 55e9 79bb 4b29 153c 6386 2e3c 0902 dcbb
00000290: ee18 343b 91fa 9b3a 0032 2d3a 27d0 a13b
000002a0: f993 823b ce62 ceba be37 f93a 8fe9 1aba
000002b0: afc3 3cba 679b 073d cba1 f63c 9e6e ef3a
000002c0: 5b73 5e3c 7bab 5f3c a75a e13b 16b1 493c
000002d0: aaf8 6d3c b93b 8d3b 67cd c43b 2b20 273c
000002e0: d0fc a2bb 5c2a 263c 18de f43b 51b2 a0ba
000002f0: 3b43 653d b15c 35bd 9b11 29bd 817a 713d
00000300: 48de 0a3d f570 d5bc 96c7 b4bc b8a3 f33c
00000310: 0029 4e3b b1fd 853b 3e45 f23a 1314 a33b
00000320: c099 313d 4e1d 0bbd 9df7 2fbd e174 353d
00000330: 4d8d c73d 697c 73bd 7cac 90bd 87b1 d83d
00000340: 2db7 fc3d f2a0 bcbd 241d afbd f4dc f73d
00000350: 4cd4 043d 4037 113c 8c45 883c 8d9c b13c
00000360: 00da e93c 02c3 c9bc d217 d7bc 51ff d43c
00000370: d1d8 903d 841a 6fbd 0365 5cbd c19f 843d
00000380: d701 a33d 8da8 6fbd 9f48 7ebd 9806 9b3d
00000390: e34e ce3d 57bc 99bd 581a 8ebd 0e22 b73d
000003a0: e0ff adbb 9d33 513c 1dd8 4a3c 4597 eabb
000003b0: 2347 813c 79f6 493d a86d 4b3d 1179 743c
000003c0: 78c0 fd3b e67f 383b e067 27bb 621c 543b
000003d0: 4eb2 263c 60ae 94bb e3d2 91bb 8798 133c
000003e0: b261 fb3c 4020 aebb f748 ba3b 578d 0d3d
000003f0: 105c 7bbc 013b 633d cc07 853d 4e79 53bc
0.07631808 -0.04124051 -0.052007098 0.06457685 0.011297199 0.008033093 0.019274626 0.006725725
-0.008418947 0.01627315 0.01861119 -0.010290219 0.011615163 0.003835012 0.0059322147 0.017683418
0.009983422 0.050552294 0.05038643 0.01597525 0.01827941 0.004022924 0.001553513 0.013547252
-0.012863024 0.056412082 0.07291123 -0.0142399315 -0.015682928 0.014464868 0.012627835 -0.008376912
-0.0049589127 0.004560537 0.008290403 -0.008930902 0.024232827 -0.0064071743 -0.009045107 0.014797574
0.009140854 -0.00088735175 0.00013741961 0.000304317 0.004472251 0.017240357 0.015829323 -0.0030624133
0.016051525 -0.0023777285 -0.0042241253 0.016111184 0.07543311 -0.050476395 -0.04732425 0.07392885
-0.0007987097 0.001453839 -0.0003240644 -0.0009245828 -0.010496984 0.029061878 0.03207558 -0.0070668673
-0.009513098 0.029652804 0.023908727 -0.011276456 -0.014245433 0.020462174 0.02033817 -0.013555033
0.0026733489 -0.0009152943 -0.0056443266 0.0051914332 0.02129052 -0.021533404 -0.029108034 0.024769798
-0.029371887 0.109718315 0.10622561 -0.030480688 -0.011041193 0.02452858 0.022537023 -0.010312802
0.05542756 -0.032762975 -0.0397783 0.059946287 0.10773112 -0.08673936 -0.076323904 0.11313395
0.024944887 -0.0071279276 -0.009806755 0.016666196 -0.014133318 0.05720969 0.053380862 -0.012543461
0.12584895 -0.06916165 -0.073743775 0.12331773 -0.005754451 0.028355706 0.028903468 -0.008259255
-0.04242393 0.114414565 0.1255238 -0.03251785 0.102640346 -0.0749108 -0.076289564 0.10314092
-0.024553437 0.1189828 0.12013882 -0.025461927 0.14086954 -0.07368178 -0.058628008 0.1404716
-0.007891217 0.01457715 0.018933173 -0.010100104 0.1698124 -0.07603773 -0.07804992 0.18642715
0.06534005 -0.027773395 -0.032523673 0.058219668 0.0096977595 -0.009592356 -0.011180227 0.010508455
-0.0010688934 0.017603261 0.010617352 -0.004784848 0.06369497 -0.026666626 -0.030110516 0.06530158
0.001199736 0.0221656 0.029460622 -0.00019356502 0.1909429 -0.06640606 -0.05395496 0.1850228
-0.0038133461 0.009104083 0.0106521575 -0.00671411 0.002748068 0.0011900236 0.0006606877 0.004938144
0.003984925 -0.0015745999 0.0019013805 -0.0005909437 -0.000720079 0.033107188 0.030106446 0.001826722
0.013577308 0.013651724 0.0068772617 0.012310287 0.014524618 0.004310098 0.006005931 0.010200541
-0.0049739853 0.010141935 0.0074727647 -0.0012260174 0.05597232 -0.04427785 -0.041276556 0.05895472
0.03390339 -0.026054839 -0.022067826 0.029741153 0.0031457543 0.0040890803 0.001848377 0.0049767583
0.043359518 -0.033963494 -0.04296075 0.044300918 0.09743748 -0.05944482 -0.07064149 0.10580736
0.123396255 -0.092103854 -0.0855048 0.1210269 0.032429025 0.00886327 0.016634725 0.021681095
0.028546333 -0.02462912 -0.026256476 0.02600065 0.070726044 -0.058374897 -0.05380727 0.06475783
0.07959335 -0.058510352 -0.062080976 0.07569617 0.1007364 -0.07506626 -0.069386184 0.08942042
-0.0053100437 0.012768653 0.012380627 -0.007159146 0.015780991 0.04930732 0.049665123 0.014921443
0.0077438913 0.0028152405 -0.0025544092 0.003236555 0.010174347 -0.0045373887 -0.0044501885 0.009008533
0.030686233 -0.005313903 0.0056849676 0.03455862 -0.015341774 0.055476192 0.06495628 -0.012907339

gc1.bias f4 [4]
00000000: 5d2d 953d c851 b33d 439e ab3d 5481 983d
0.07284043 0.08755833 0.083797954 0.074465424

gc2.weight f4 [4, 2]
00000000: 0b37 1340 6476 14c0 2b50 44c0 39a9 4240
00000010: 8473 4ac0 115a 4b40 0458 1340 c769 10c0
2.3002346 -2.319726 -3.067393 3.0415785 -3.1633005 3.1773722 2.302247 -2.2564561

gc2.bias f4 [2]
00000000: 42df 1f3f 599e 82bf
0.6245004 -1.0204574
