Codes/Meta-GCN/Data/PredictResult/save4/1/model.pkl (torch, 20895 bytes, 4 tensors)

gc1.weight f4 [1207, 4]
0.2021501 -0.09613667 -0.097376905 0.20035706 -0.074851714 0.15501237 0.15970966 -0.07784681
0.017884 -0.003180893 -0.005423139 0.0222175 0.11421501 -0.042848762 -0.028713299 0.11909873
0.0703299 -0.021989388 -0.015328753 0.09078767 0.0022173827 0.084689595 0.08553959 -0.0022873215
0.17897126 -0.06985552 -0.06856586 0.18159643 0.057622876 -0.035347037 -0.03511761 0.058985066
0.055440806 -0.040217593 -0.03887434 0.05355394 -0.03188817 0.057382733 0.060025487 -0.027602136
0.045361377 -0.027101392 -0.027664218 0.04789269 0.020911226 0.0021083062 -0.0007242493 0.02174703
0.04662747 -0.023853032 -0.024165206 0.04398493 0.023701139 0.0020490065 -0.0015648975 0.027029492
-0.029800838 0.029190088 0.03435823 -0.026836466 0.14617613 -0.08247928 -0.069997706 0.16050126
0.12474685 -0.07898076 -0.065673076 0.11677504 0.018341094 -0.0035386556 -0.0026765934 0.019492889
-0.037469342 0.035849173 0.040085994 -0.041919805 -0.008780175 0.006776196 0.005003587 -0.0080553545
0.1887242 -0.086577006 -0.076227844 0.18824597 0.06519108 -0.025436314 -0.011032689 0.069802955
-0.022903893 0.12173867 0.10532704 -0.013235456 0.0048493 0.007306134 0.0041141845 0.008991686
0.045290895 -0.0057115955 -0.014895472 0.063198276 0.1419529 -0.071164995 -0.065163285 0.14196897
-0.03306967 0.14325084 0.14103551 -0.027896862 0.045263857 -0.020743825 -0.021602763 0.04033175
0.20068274 -0.067367524 -0.062466934 0.20639415 0.07339267 -0.02927396 -0.02637419 0.072644345
0.15797417 -0.047873877 -0.040204734 0.14621258 -0.022312637 0.049261935 0.04482403 -0.027693078
0.013032073 0.0041833697 0.013563303 0.011307608 -0.0047739316 0.26175582 0.25162822 -0.00802502
0.009329596 0.09193202 0.07437968 0.006996811 0.0053100996 0.008411556 0.0104017295 0.008678522
-0.00402546 0.0389652 0.041743062 -0.0050022188 0.037485387 -0.00045773532 0.012792863 0.020976886
0.07586736 -0.03809588 -0.02769253 0.071683615 -0.0117541365 0.31003717 0.2829 -0.016108138
0.027974488 -0.01903494 -0.02075043 0.030683551 -0.029684495 0.030126052 0.033040613 -0.03465519
0.012407 -0.009134699 -0.01286767 0.013092158 0.0993934 -0.06417786 -0.06005829 0.11086822
0.12133481 -0.050671674 -0.043467026 0.12145131 0.09214834 -0.02734503 -0.026176557 0.08690079
0.01588852 -0.010359149 -0.01590229 0.012839678 -0.010483668 0.03663944 0.035934523 -0.009674908
0.04062464 -0.007064848 -0.0049537886 0.034781706 -0.031292863 0.08563516 0.07039264 -0.03323314
-5.6477846e-05 0.013537498 0.013803068 -1.1742843e-05 0.04166272 0.039412837 0.039609686 0.046494916
-0.053173438 0.17056258 0.16086124 -0.07020583 -0.02710222 0.09131206 0.09671159 -0.03695193
0.009233637 0.019412927 0.017256115 0.008325237 0.04020078 0.0021718792 0.01123253 0.03851513
0.10877514 -0.032886248 -0.041585397 0.09711728 0.11847712 -0.04963783 -0.041372545 0.12071861
0.03236174 0.0151841575 0.014665856 0.027663713 0.18476464 -0.06322347 -0.07106695 0.1703431
0.03936524 -0.0070447805 -0.002374403 0.038236447 0.00012208159 0.01297609 0.020093676 -0.0011283109
0.06646609 0.03823783 0.028679388 0.063181244 0.24567237 -0.09905388 -0.09314205 0.23815714
00000000: 7000 4f3e 4de3 c4bd 8b6d c7bd 672a 4d3e
00000010: db4b 99bd 90bb 1e3e ee8a 233e 266e 9fbd
00000020: 7781 923c 8776 50bb 96b4 b1bb 7901 b63c
00000030: 8fe9 e93d 2f82 2fbd 2738 ebbc 09ea f33d
00000040: 1f09 903d 1723 b4bc 7325 7bbc e3ee b93d
00000050: 8251 113b bd71 ad3d 612f af3d e3e6 15bb
00000060: 3e44 373e 6910 8fbd 426c 8cbd 6af4 393e
00000070: f705 6c3d 0ec8 10bd 7cd7 0fbd 539a 713d
00000080: e615 633d 34bb 24bd b33a 1fbd 605b 5b3d
00000090: 2b9d 02bd 280a 6b3d 49dd 753d e01d e2bc
000000a0: dacc 393d bd03 debc 12a0 e2bc 202b 443d
000000b0: 054e ab3c 822b 0a3b 8cdb 3dba d426 b23c
000000c0: 72fc 3e3d 6f67 c3bc 1cf6 c5bc 8b29 343d
000000d0: e428 c23c a048 063b 3f1d cdba f46c dd3c
000000e0: e320 f4bc 0d20 ef3c 37bb 0c3d 26d8 dbbc
000000f0: 32af 153e e6ea a8bd f55a 8fbd 715a 243e
00000100: 477b ff3d aac0 a1bd 9b7f 86bd c127 ef3d
00000110: 1040 963c cae8 67bb c969 2fbb 8daf 9f3c
00000120: 7479 19bd 95d6 123d 3631 243d 1ab4 2bbd
00000130: b9da 0fbc da0a de3b 21f5 a33b 9bfa 03bc
00000140: eb40 413e 494f b1bd 581d 9cbd 8dc3 403e
00000150: e782 853d d15f d0bc 74c2 34bc daf4 8e3d
00000160: f2a0 bbbc 2052 f93d b4b5 d73d 87d9 58bc
00000170: e0e6 9e3b 4b68 ef3b 48d0 863b dd51 133c
00000180: f282 393d 5628 bbbb 230c 74bc 196e 813d
00000190: 1a5c 113e f4be 91bd 5474 85bd 5060 113e
000001a0: 1074 07bd 59b0 123e 9d6b 103e f687 e4bc
000001b0: 9866 393d f4ee a9bc 47f8 b0bc e832 253d
000001c0: c77f 4d3e fcf7 89bd 54dd 7fbd fd58 533e
000001d0: e54e 963d f2cf efbc af0e d8bc 8fc6 943d
000001e0: fbc3 213e 6617 44bd b8ad 24bd c0b8 153e
000001f0: fec8 b6bc e2c6 493d 6799 373d 98dc e2bc
00000200: 7a84 553c a614 893b 9e38 5e3c 8c43 393c
00000210: a46e 9cbb dc04 863e 6ad5 803e 607b 03bc
00000220: 29db 183c db46 bc3d 6054 983d 8145 e53b
00000230: 5800 ae3b 9fd0 093c 046c 2a3c 5c30 0e3c
00000240: 02e8 83bb f999 1f3d c6fa 2a3d a7e9 a3bb
00000250: 478a 193d 32fc efb9 2899 513c b8d7 ab3c
00000260: 5960 9b3d 6d0a 1cbd 72db e2bc dcce 923d
00000270: 6c94 40bc 31bd 9e3e 45d8 903e 37f5 83bc
00000280: c12a e53c 2aef 9bbc cefc a9bc 125c fb3c
00000290: e62c f3bc e9ca f63c 9855 073d 9af2 0dbd
000002a0: bb46 4b3c b4a9 15bc ebd2 52bc 7e80 563c
000002b0: c48e cb3d af6f 83bd aeff 75bd e10e e33d
000002c0: 637e f83d 1a8d 4fbd 7b0a 32bd 77bb f83d
000002d0: 45b8 bc3d af02 e0bc 3870 d6bc 0bf9 b13d
000002e0: a428 823c 6cb9 29bc 8545 82bc 835d 523c
000002f0: b1c3 2bbc 3d13 163d 1430 133d 8183 1ebc
00000300: 0666 263d 3e80 e7bb 6453 a2bb 4377 0e3d
00000310: f22c 00bd 7d61 af3d 042a 903d 791f 08bd
00000320: a0e2 6cb8 62cc 5d3c 4326 623c 2003 45b7
00000330: 87a6 2a3d 5b6f 213d c43d 223d 7471 3e3d
00000340: 64cc 59bd f5a7 2e3e cfb8 243e 13c8 8fbd
00000350: 7a05 debc d101 bb3d ba10 c63d e85a 17bd
00000360: ae48 173c dc07 9f3c b25c 8d3c 9366 083c
00000370: 93a9 243d 1656 0e3b a508 383c 0ac2 1d3d
00000380: 80c5 de3d bbb3 06bd 7355 2abd 6de5 c63d
00000390: 22a4 f23d 0a51 4bbd 4276 29bd 523b f73d
000003a0: be8d 043d f9c6 783c 0f49 703c 039f e23c
000003b0: f132 3d3e 4e7b 81bd 8d8b 91bd 6c6e 2e3e
000003c0: 723d 213d e7d7 e6bb df9b 1bbb d29d 1c3d
000003d0: 0703 0039 ab99 543c 7e9b a43c d5e3 93ba
000003e0: 601f 883d 459f 1c3d 09f1 ea3c 2b65 813d
000003f0: 8a91 7b3e c3dc cabd 42c1 bebd 77df 733e

gc1.bias f4 [4]
-0.0428964 0.1408213 0.13248011 -0.03433829
00000000: 23b4 2fbd 7533 103e dea8 073e 4fa6 0cbd

gc2.weight f4 [4, 2]
-2.9487019 2.7951372 2.555825 -2.5558255 2.386771 -2.5332408 -2.9300458 2.733085
00000000: 88b7 3cc0 87e3 3240 a392 2340 a592 23c0
00000010: dbc0 1840 9e20 22c0 df85 3bc0 ddea 2e40

gc2.bias f4 [2]
0.993515 -0.6449509
00000000: 0057 7e3f 811b 25bf
