Codes/Meta-GCN/Data/PredictResult/save2/0/model.pkl (torch, 20895 bytes, 4 tensors)

gc1.weight f4 [1207, 4]
0	0xbe144ad1	-0.14481665
1	0x3f234d6c	0.6379001
2	0x3f1676d6	0.5877508
3	0xbdcf7e21	-0.10131479
4	0x3ca8e239	0.020615684
5	0x3d80e984	0.062945396
6	0x3d7fb9c9	0.062433038
7	0x3c4ae134	0.012382794
8	0x3d1836d6	0.03716167
9	0x3cd931c1	0.026512982
10	0x3ccb80f8	0.02484177
11	0x3d1dac55	0.038494427
12	0xba71afe5	-0.0009219631
13	0x3e03f0d1	0.12884833
14	0x3dd8c730	0.10584867
15	0xbbfa128b	-0.007631605
16	0xbe487cf9	-0.19578923
17	0x3f8478c9	1.0349361
18	0x3f7c8ea7	0.9865517
19	0xbe29f394	-0.16596824
20	0x3cd19e90	0.025588304
21	0xbcd477dd	-0.025936062
22	0xbcd3b3c2	-0.025842551
23	0x3cc581b4	0.024109699
24	0xbcf65c56	-0.030073326
25	0x3e1ed4dc	0.15510887
26	0x3e17c308	0.14820492
27	0xbd34fd9d	-0.044187177
28	0x3e5442ef	0.20728658
29	0x3cb5aa81	0.02217603
30	0x3c0782a3	0.008270892
31	0x3e500bbf	0.20316981
32	0x3d875d24	0.06609562
33	0x3b2dbd3a	0.0026510493
34	0xbb2be76b	-0.0026230465
35	0x3d9b0962	0.07570149
36	0x3d2424fe	0.04007434
37	0xbc6352ca	-0.013874719
38	0xbc81cba4	-0.015844174
39	0x3d0be80a	0.034156837
40	0x3dcfdd11	0.10149587
41	0xbbfeee87	-0.0077798995
42	0xbc695846	-0.014242237
43	0x3dd6f08a	0.10495098
44	0x3d60af3c	0.054854617
45	0x3bc544e2	0.0060201744
46	0xbc12e5a0	-0.00896588
47	0x3d74bf5d	0.05975281
48	0x3d00643c	0.03134559
49	0x3c9114ef	0.017710177
50	0x3c0ca927	0.008585251
51	0x3d2e52e1	0.04255951
52	0x3d81c3ee	0.06336199
53	0xba1b0901	-0.00059141224
54	0xbb0e7e86	-0.0021742894
55	0x3d68a08f	0.056793746
56	0x3cce8f15	0.025214711
57	0x3d22430b	0.03961472
58	0x3cedb215	0.02901558
59	0x3caa5b33	0.02079544
60	0xbdd3855e	-0.10328172
61	0x3d9d9424	0.07694271
62	0x3d7a481c	0.061103925
63	0xbda39d43	-0.0798898
64	0xbdeb48c3	-0.114884876
65	0x3d9a572a	0.075361565
66	0x3d817e8a	0.063229635
67	0xbd838da8	-0.06423503
68	0x3d72a727	0.05924144
69	0x3d4d6097	0.050140943
70	0x3d3d5a87	0.04622891
71	0x3d9043ff	0.07044219
72	0x3d7366a5	0.05942406
73	0xbd1f36fb	-0.038870793
74	0xbd29cef9	-0.04145715
75	0x3d66b0fd	0.056321133
76	0x3d4a29b2	0.04935617
77	0xbd2287ea	-0.0396804
78	0xbd323ae5	-0.043513197
79	0x3d34dbce	0.044154935
80	0xbda6a86c	-0.08137593
81	0x3f66317f	0.89919275
82	0x3f55e25e	0.83548534
83	0xbdca54fd	-0.098794915
84	0x3c7d79e9	0.01547096
85	0x3dfbe2ce	0.12299119
86	0x3dd19e3c	0.10235259
87	0x3acaa92c	0.0015461794
88	0x3dcb23dd	0.0991895
89	0xbd0a6046	-0.03378322
90	0xbd05d161	-0.032670382
91	0x3db8a1a6	0.09015207
92	0x3d4f718a	0.05064539
93	0xbcf1e82c	-0.029529653
94	0xbcec6579	-0.02885698
95	0x3d769d40	0.06020856
96	0xbd6b31dc	-0.057420596
97	0x3dbc2ff5	0.091888346
98	0x3db3a462	0.08771588
99	0xbdb54e4d	-0.08852825
100	0xbbd5f7e5	-0.0065297955
101	0x3f0e835d	0.55669194
102	0x3f014da0	0.5050907
103	0xbcb139ec	-0.021634065
104	0x3e8a6a72	0.27034336
105	0x3c59efe6	0.013301825
106	0x3c350804	0.011049274
107	0x3e861d4b	0.26194224
108	0x3df633b5	0.12021581
109	0x3d7d8cd8	0.061901897
110	0x3d60e684	0.054907337
111	0x3dc40cac	0.095727295
112	0xbe416afe	-0.1888847
113	0x3f709842	0.93982327
114	0x3f5c8ac7	0.8614926
115	0xbe33d2c9	-0.17560877
116	0x3dcd9799	0.100386806
117	0x3ceb87ec	0.028751336
118	0x3cca448e	0.024690893
119	0x3ded295a	0.11580153
120	0x3bede492	0.0072599137
121	0x3f1e7125	0.61891395
122	0x3f17adbf	0.5924949
123	0xbcc07648	-0.0234939
124	0x3dcdf6ae	0.10056816
125	0xbd00efa3	-0.031478535
126	0xbd0edde9	-0.0348796
127	0x3dc63f40	0.09680033
128	0x3d0ba7fc	0.03409575
129	0x3d00e4d2	0.03146822
130	0x3d0757b2	0.033042617
131	0x3d078bef	0.033092435
132	0x3d8c9472	0.06864251
133	0x37ac38be	2.053042e-05
134	0x38a67a92	7.938327e-05
135	0x3d84391c	0.06456205
136	0x3cad437e	0.021150347
137	0xbc23fe20	-0.010009319
138	0xbc487964	-0.012235973
139	0x3cad7573	0.021174168
140	0x398c6032	0.00026774552
141	0xb693937b	-4.3981104e-06
142	0x37876dd9	1.6144406e-05
143	0xb7f784cc	-2.9506533e-05
144	0x3d24d04d	0.040237714
145	0x3b863b2a	0.0040964084
146	0x3bddbcaf	0.0067668776
147	0x3cfed6df	0.031108318
148	0x3cc7f54c	0.024408959
149	0x3f1caaef	0.61198324
150	0x3f0f5650	0.5599108
151	0x3a32fb97	0.0006827651
152	0x3b906608	0.0044066943
153	0x3ddcf00c	0.10787973
154	0x3dce1187	0.10061937
155	0xbc6b921e	-0.014378099
156	0x3e0567d7	0.13027893
157	0xbd0f3298	-0.03496036
158	0xbd0b95c6	-0.034078382
159	0x3e021d4f	0.12706493
160	0x3dec46c7	0.11536937
161	0x3beeae16	0.0072839363
162	0x3c1d0c7c	0.009585496
163	0x3df701bb	0.12060877
164	0x3d5b93da	0.0536078
165	0x377685fb	1.4693937e-05
166	0x3779a551	1.4880047e-05
167	0x3d62a839	0.05533621
168	0x3cd3c36e	0.025850024
169	0xbc1abb91	-0.009444133
170	0xbc784fe4	-0.015155766
171	0x3caec7eb	0.021335563
172	0xbd6be549	-0.05759171
173	0x3d8e900a	0.06961067
174	0x3d519967	0.051171687
175	0xbdaa1c6a	-0.08306201
176	0x3d5ff3e4	0.05467595
177	0x3e2b7ecf	0.16747592
178	0x3e1e07f5	0.15432723
179	0x3cbc909e	0.023018178
180	0x3d9bfd29	0.07616646
181	0x3dae8578	0.08521551
182	0x3db15605	0.08658985
183	0x3db88494	0.09009662
184	0x3e0b51d5	0.13605435
185	0x3cc58d4a	0.024115223
186	0x3ccf29b5	0.025288442
187	0x3df3e07d	0.11908052
188	0x3cb753e3	0.022378867
189	0xbc39a2ce	-0.01133032
190	0xbc472698	-0.012155198
191	0x3c87e84f	0.016590266
192	0x3ccaa49d	0.024736697
193	0x3d943135	0.07235948
194	0x3d6a4088	0.057190448
195	0x3cc1d6a4	0.023661919
196	0x3cddaa88	0.027058855
197	0x3a6f94b6	0.0009139286
198	0x3bb027a8	0.005375821
199	0x3cbbfaa1	0.022946658
200	0x3d10d4f8	0.035359353
201	0xb70bdc13	-8.336286e-06
202	0x378eb0b5	1.7010005e-05
203	0x3d05c99d	0.032662977
204	0xbca67c01	-0.020322802
205	0x3e6bc706	0.2302514
206	0x3e4e1ca8	0.20128119
207	0xbd2658a3	-0.040611874
208	0x3e689ea6	0.2271677
209	0x3d424c54	0.047436073
210	0x3d2fa71a	0.04288397
211	0x3e612a93	0.21988897
212	0x3d1ecf27	0.038771775
213	0x3e3c1512	0.18367413
214	0x3e2a06ef	0.16604207
215	0x3c80d494	0.015726365
216	0x3d8336f3	0.06406965
217	0xbd2a2684	-0.041540638
218	0xbd2cd650	-0.04219657
219	0x3d8a967c	0.06766984
220	0x3def5944	0.11686948
221	0x3b450dd7	0.0030068064
222	0xbb6b51c0	-0.003590688
223	0x3dfff870	0.124985576
224	0xbe2e5973	-0.1702631
225	0x3e28ada4	0.16472489
226	0x3e103326	0.14082012
227	0xbe069c1c	-0.13145489
228	0xbe3f2e26	-0.18669948
229	0x3e2895ab	0.16463344
230	0x3e1842b0	0.1486919
231	0xbe2e745c	-0.17036575
232	0xbd156623	-0.03647436
233	0x3d091b2f	0.03347319
234	0x3cb18f3c	0.021674745
235	0xbd4e42ca	-0.050356664
236	0xbed0400d	-0.40673867
237	0x3f544c76	0.8292917
238	0x3f45add2	0.77218354
239	0xbeca74f9	-0.39542368
240	0x3d732241	0.05935884
241	0x3d5089e4	0.050912753
242	0x3d26293d	0.04056667
243	0x3d3cd3dd	0.046100486
244	0x3d55ab85	0.052165527
245	0xbcc1271d	-0.023578221
246	0xbd00d30c	-0.03145127
247	0x3d3291f4	0.043596223
248	0xbdcf8c1f	-0.10134148
249	0x3edd42cb	0.43215021
250	0x3eb3bd91	0.35105565
251	0xbdba07bd	-0.09083507
252	0xbd852862	-0.06501843
253	0x3e696e4b	0.2279598
254	0x3e6a92c1	0.22907545
255	0xbd5606e9	-0.052252684

gc1.bias f4 [4]
0	0x3db95b04	0.09050563
1	0xbf480625	-0.78134376
2	0xbf3c1f5d	-0.73485357
3	0x3dda7936	0.106676504

gc2.weight f4 [4, 2]
0	0x402534f7	2.5813577
1	0xc0353bcc	-2.8317747
2	0xc00d6e8f	-2.209873
3	0x3fff543e	1.9947584
4	0xbfe343b9	-1.7755042
5	0x4008a103	2.1348274
6	0x402d8967	2.7115114
7	0xc0312a86	-2.7682204

gc2.bias f4 [2]
0	0x3f97fe90	1.1874561
1	0xbf47902e	-0.77954376
