Codes/Meta-GCN/Data/PredictResult/save9/0/model.pkl (torch, 20895 bytes, 4 tensors)

gc1.weight f4 [1207, 4]
000000 8d f3 cf 3e 1d 3d 9e 3d 2d 98 bc 3e 03 78 bf 3e
       0.40615502 0.077265 0.3683485 0.3739625
000010 7e 11 de 3b 3f 02 4a 3d d2 2a ed bd 11 aa d5 bd
       0.0067769876 0.04931855 -0.11580433 -0.10432828
000020 34 98 4c 3c 50 74 b9 3b 44 d0 86 3b ea 3c c7 3b
       0.01248746 0.0056596175 0.0041141827 0.0060802596
000030 da 65 d7 3d 40 01 83 3d 82 9d 04 3e dc 23 03 3e
       0.105174735 0.06396723 0.1295071 0.12806648
000040 d2 c7 57 3e a9 6c 30 3e bb be 3d 3e 06 98 41 3e
       0.21072319 0.1722895 0.18529789 0.18905649
000050 3d a9 8a 3c 69 32 81 3c 0a 30 c1 3b 92 29 10 3c
       0.016926402 0.015771108 0.0058956193 0.008798974
000060 bf 04 58 3c b8 4a 9a 3d 19 25 93 3d 05 dd 4c 3d
       0.013184725 0.07533783 0.0718481 0.05001547
000070 b8 23 0c 3d 7c 51 88 3c c0 4e a2 3b 22 8f 40 3b
       0.03421375 0.016640417 0.0049532354 0.0029382189
000080 95 04 f9 3c 0a 10 cd 3b 9f 7b fc 3c c2 ee 6f 3c
       0.030397693 0.0062580155 0.030820666 0.014644327
000090 f7 59 14 3d 31 4f ff 3c 3a 76 22 3d c6 21 18 3d
       0.03621861 0.031165691 0.03966353 0.037141584
0000a0 46 cc c2 3c 19 b6 8b 3c 0e 60 bd 3c 23 8a df 3c
       0.023779046 0.017054604 0.023117092 0.027287548
0000b0 92 45 4c 3c 43 22 b0 3c 7e 5e e9 3b 08 08 31 3c
       0.012467759 0.021500712 0.00712186 0.010805137
0000c0 58 96 0c 3d f7 a4 76 3c 57 af 53 3d 2f 26 46 3d
       0.034323066 0.015053979 0.05168089 0.04837626
0000d0 46 b5 8e 3d f2 00 5f 3d c5 e9 e2 3d 65 78 eb 3d
       0.06968169 0.05444426 0.11079744 0.11497573
0000e0 b2 ff 24 bb b6 79 f8 3b 27 81 f9 3b 16 be 17 3c
       -0.002517682 0.0075828684 0.007614273 0.009261629
0000f0 02 9c 7b 3d 99 03 8f 3d 51 36 11 3e 49 4b 06 3e
       0.061428078 0.06983108 0.14180876 0.13114657
000100 53 81 80 3d a2 aa 95 3d 97 11 00 3e 16 48 01 3e
       0.06274667 0.07307936 0.1250671 0.12625155
000110 68 ab f9 3c ff 58 7b 3c d8 94 07 3d 8d a1 12 3d
       0.03047724 0.015341043 0.033100933 0.035798598
000120 1b ab f4 3c 90 ef 53 3b f7 34 30 3d d4 2e 31 3d
       0.029866746 0.0032338835 0.04301926 0.04325755
000130 c7 72 1b 3d bd cf 56 3c 86 ef 29 3d b6 e2 28 3d
       0.037951257 0.013111052 0.041488193 0.041231833
000140 d9 40 e4 3e 21 3d fe 3d 16 e0 d3 3e 94 81 de 3e
       0.44580725 0.12414003 0.41381902 0.43458235
000150 7e fd 1b 3d 8e d7 89 3d 60 7b 3d 3d e2 14 2f 3d
       0.038083546 0.06730567 0.046260238 0.042744525
000160 5d 27 04 3c 48 67 07 3c 45 51 3d 3c a6 dd 2f 3c
       0.008066026 0.00826437 0.011555021 0.010733997
000170 61 ac 37 3d ba e2 bb 3b 45 a3 12 3d c8 23 f2 3c
       0.044842128 0.005733815 0.035800237 0.029558077
000180 4c 0c 5b 3d a3 08 2c 3d ef 83 4a 3d 71 1e 2f 3d
       0.053478524 0.042000424 0.049442228 0.04275364
000190 ab c0 77 3e a5 ce da 3d 9b f2 43 3e ef 4f 56 3e
       0.24194591 0.106839456 0.19135515 0.2092893
0001a0 70 c8 62 bc 31 3a 2d b7 fe 86 3d bd 5d 61 38 bd
       -0.013841733 -1.0325152e-05 -0.046271317 -0.045014728
0001b0 67 f0 b4 3d 30 e7 25 3c da df fc 3d 6b c6 db 3d
       0.088349156 0.01012592 0.12347384 0.107312046
0001c0 4b 49 b7 3d 7b ca 19 3e f1 4b e7 3c 2a b9 c9 3c
       0.089495264 0.15018646 0.028234454 0.024624426
0001d0 65 fb 57 3e f3 fc 35 3d 3d 83 13 3e 4b 92 10 3e
       0.21091993 0.044430684 0.14405532 0.14118306
0001e0 ab e5 3b 3f ca bf 2b 3f f6 a5 1f 3f a8 a4 1b 3f
       0.7339732 0.6708952 0.6236261 0.6079812
0001f0 a2 3b 7c 3c 6d 76 e9 3a 57 71 90 3c f4 72 9b 3c
       0.015395077 0.0017811783 0.01763217 0.018975712
000200 3f 79 cb bc 77 8a 21 3c 8b 6a ba bc c0 18 b8 bc
       -0.024838088 0.009859673 -0.022755882 -0.02247274
000210 38 d0 f7 3b 31 93 3b 37 ee 3e 0e 3c 23 ed 49 3b
       0.0075626634 1.1180339e-05 0.008681996 0.003081151
000220 a9 b0 af 3b 6a 60 40 b7 63 23 c6 3b 3b fe da 3b
       0.0053616357 -1.146654e-05 0.006046699 0.0066831387
000230 91 f4 28 37 a6 f0 53 b7 c1 bf 40 3c 21 c2 77 3c
       1.0070523e-05 -1.263261e-05 0.011764468 0.0151219675
000240 e8 e5 03 bc bf 66 09 3d a9 e8 b6 bc d1 da 88 bc
       -0.008050419 0.033545252 -0.022327738 -0.016705902
000250 92 c3 e4 3e aa 96 1a 3e bb 66 b7 3e c9 27 bb 3e
       0.44680458 0.15096536 0.35820565 0.3655379
000260 f0 08 ca 3d bd 1c 4b 3d 67 24 0e 3e 5a a2 07 3e
       0.09864986 0.049587954 0.13881074 0.13245526
000270 1d a5 6b 3c e7 9b ed 3a 84 c8 28 3b 83 97 cd 3b
       0.014382628 0.0018128128 0.0025754282 0.006274165
000280 2b fc 25 3d 8f 61 1b 3c c4 ea b0 3a 22 00 dd 3a
       0.04052369 0.009483709 0.00134977 0.0016861001
000290 97 b6 c2 3b 0d f4 8c b7 cd d6 ee 3b 14 47 f8 3b
       0.0059421766 -1.6802946e-05 0.00728879 0.0075768325
0002a0 b8 5b 62 3c 09 49 56 b7 3e da b5 3c e0 2b 8b 3c
       0.013815813 -1.2772399e-05 0.022198793 0.016988695
0002b0 e9 28 20 3d b6 4e e1 3c 4b 8a 2e 3e 8a d1 23 3e
       0.039101515 0.027503353 0.17044942 0.15997902
0002c0 a8 9a ab 3d 5a 41 86 3d e1 a6 30 bd 04 e2 19 bd
       0.08379108 0.065554336 -0.043127898 -0.03756906
0002d0 a1 7c 44 3d 84 3f 80 3d e0 16 d5 bd 05 ed c9 bd
       0.047970418 0.06262115 -0.10404754 -0.09859661
0002e0 42 1b ce 3c c2 87 77 37 84 35 25 bc be 26 20 bb
       0.025159482 1.4753956e-05 -0.01008356 -0.0024437155
0002f0 5a f8 1b 3d 1b 4d 35 3b 96 a2 7f 3c e5 b5 ad 3c
       0.038078643 0.0027664367 0.015602728 0.021204898
000300 0d 8e f0 3c e3 70 80 3d 41 c9 49 3d 32 1d 40 3d
       0.02936461 0.062715314 0.049264196 0.046902843
000310 c9 33 14 3d cc 25 e1 3c 8a 5a 66 3c 7f cf 45 3c
       0.0361822 0.027483843 0.014059672 0.012073397
000320 64 40 81 37 3a 7d 32 37 2d 1f df bb ff c9 dc bb
       1.5407983e-05 1.0638783e-05 -0.0068091364 -0.006737947
000330 14 e1 de 3d 9e 32 b3 3d d7 b0 b9 3d 48 1e d5 3d
       0.10882774 0.08749889 0.09066933 0.10406166
000340 68 cd 9b 3c ff a6 29 3d 18 ef e0 bb 35 da 17 bc
       0.019018844 0.041419026 -0.0068644397 -0.009268333
000350 9a 76 e0 3d 96 51 0c 3e cb ec 0b bc ab 4d 8a bc
       0.109601215 0.13702998 -0.008540343 -0.016882738
000360 53 32 e2 3c 02 b6 00 b7 1e f1 fa 3c 3c 71 f9 3c
       0.027611887 -7.6717715e-06 0.030632552 0.030449502
000370 62 46 d8 3d 9b 1b 0a 3d 2f 81 9e 3d ab 13 6d 3d
       0.105602995 0.033717733 0.077394836 0.057880085
000380 a7 0a 2b 3e 00 2a 71 3d 76 39 df 3d a9 cc e2 3d
       0.16703282 0.058877945 0.10899632 0.11074192
000390 7a d5 b8 3d a5 a3 c5 3c 04 11 25 3d ac 9d f1 3c
       0.090250924 0.024125883 0.04029943 0.02949413
0003a0 b7 b6 ce 3c 65 12 8d 3c a9 b8 ef bc f3 ae 0c bd
       0.02523361 0.017220685 -0.029262858 -0.034346532
0003b0 85 25 07 3f 64 f7 e4 3e 1d 7d 07 3f 03 6a 0c 3f
       0.52791625 0.44719994 0.5292528 0.5484926
0003c0 13 52 a1 3d 55 38 3d 3d 7e 27 42 3d d0 7a 4c 3d
       0.078769825 0.0461963 0.047400944 0.04992181
0003d0 5a 0a 3c 3d dd e0 a2 3c ac 7b 56 3c 47 66 f2 3b
       0.04590831 0.019882614 0.013091009 0.0073974463
0003e0 0c 8b 84 3e db 98 b0 3d 0f ac 62 3e 61 3f 61 3e
       0.25887334 0.08622905 0.22135948 0.21996833
0003f0 0a 70 ae 3e ad a6 f9 3d 33 a9 a1 3e 57 b7 a2 3e
       0.34069854 0.12189994 0.315744 0.31780502

gc1.bias f4 [4]
000000 5e 72 78 be 1f 49 fb be fa 72 22 bd 99 64 23 bd
       -0.24262378 -0.49079224 -0.03966043 -0.03989086

gc2.weight f4 [4, 2]
000000 57 96 8e bf bf f4 7a 3f 68 ce 82 bf e9 81 d2 3f
       -1.113963 0.980297 -1.021924 1.6445895
000010 a0 57 90 bf aa 2b 52 3f ef ca 98 bf 0d b2 35 3f
       -1.1276741 0.82097876 -1.193693 0.7097481

gc2.bias f4 [2]
000000 45 a0 ef 3f eb c9 f1 bf
       1.8720785 -1.8889745
