Codes/Meta-GCN/Data/PredictResult/save5/0/model.pkl (torch, 20895 bytes, 4 tensors)

gc1.weight f4 [1207, 4]
0	0x3ee6be22	0.45066935
1	0xbde1c707	-0.110242896
2	0xbddf0fa6	-0.108916566
3	0x3eddb27f	0.43300244
4	0x3d725d36	0.059170924
5	0x3c41a5e5	0.0118193375
6	0x3c7d49da	0.015459502
7	0x3d4b5009	0.049636874
8	0x3d23028b	0.039797347
9	0x3c047457	0.008084378
10	0x3bcbfecc	0.0062254425
11	0x3d05d111	0.032670084
12	0x3d46ed40	0.048566103
13	0x3da9389d	0.08262751
14	0x3dbb8b75	0.09157459
15	0x3d429c8d	0.04751258
16	0xba02a1d6	-0.0004983222
17	0xbd838d8d	-0.06423483
18	0xbd483d04	-0.048886314
19	0x3c4f81a4	0.012665186
20	0xba335752	-0.000684132
21	0x3d174435	0.03693028
22	0x3d0cc4ae	0.034367256
23	0xbb8aebc1	-0.00423953
24	0x3d80deef	0.06292521
25	0x3b9643e6	0.004585731
26	0xbb8210ba	-0.003969279
27	0x3d3fe86d	0.046852518
28	0x3cb43415	0.02199749
29	0xbc4dc80b	-0.012559901
30	0xbbc379f3	-0.005965465
31	0x3c86a2ab	0.016434988
32	0x3c2eeaf7	0.010676137
33	0x3bbaba9e	0.005698516
34	0x3c927cc7	0.017881764
35	0x3c266d2f	0.010157867
36	0x3b9222e9	0.004459728
37	0x3cf9ec4a	0.03050818
38	0x3d02a534	0.03189583
39	0x3b0934cb	0.0020936008
40	0x3c87317f	0.016503094
41	0x3cd7fb92	0.026365075
42	0x3ca6c4fb	0.0203576
43	0xbb515c08	-0.0031945724
44	0x3cf8db9f	0.030378161
45	0x3d582c7f	0.05277681
46	0x3d362e71	0.044477884
47	0x3cbfd18e	0.023415353
48	0x3c336c95	0.010951181
49	0xba0d1e29	-0.00053832174
50	0xba5fc390	-0.0008535916
51	0x3be57d26	0.0070034442
52	0x3d0da657	0.034582462
53	0x3d7b3725	0.061331887
54	0x3d8a76f2	0.06760968
55	0x3cf4347d	0.029810185
56	0xbc4beab7	-0.012446097
57	0x3c4f8d3c	0.01266795
58	0x3c91c1b4	0.01779256
59	0xb72ff57d	-1.048797e-05
60	0x3d137a8d	0.036005545
61	0xba13a452	-0.00056320906
62	0xbac759e8	-0.0015209289
63	0x3cc58d7a	0.024115313
64	0x3d130772	0.035895772
65	0xbbf5732a	-0.0074905353
66	0xbb11fb4a	-0.0022275024
67	0x3cdf77ba	0.02727877
68	0x3d6b6839	0.05747244
69	0x3d2aafb6	0.041671477
70	0x3d202e22	0.039106496
71	0x3cbd3fa1	0.02310163
72	0x3b2df039	0.002654089
73	0x3d2483f4	0.040164903
74	0x3d437391	0.047717635
75	0x3b103a7f	0.0022007523
76	0x3aea520a	0.0017877233
77	0x3d12df5e	0.03585755
78	0x3d36669b	0.044531446
79	0x39b5624a	0.0003459624
80	0x3f103c81	0.5634232
81	0xbe4488fe	-0.19192883
82	0xbe2e600f	-0.17028831
83	0x3eefbb4b	0.4682258
84	0x3d69b9c4	0.057061926
85	0xbce7bf04	-0.028289326
86	0xbcb10b24	-0.021611758
87	0x3d15d9a4	0.03658451
88	0x3b1b8f1e	0.0023736428
89	0x3cafa035	0.021438697
90	0x3c9245cc	0.017855547
91	0x3af6f872	0.0018842353
92	0x3c24487b	0.010027046
93	0x3d944e7c	0.07241532
94	0x3daca346	0.084295794
95	0x3c124efb	0.008929963
96	0x3daea2a5	0.08527116
97	0xbe00c15c	-0.12573761
98	0xbdd3c24d	-0.10339794
99	0x3cc36d0d	0.02385571
100	0x3d83417f	0.06408977
101	0xbd0b1b69	-0.033961687
102	0xbce68693	-0.028140342
103	0x3d83d239	0.06436581
104	0xbbe6f75f	-0.007048532
105	0x3dbf48ee	0.09340082
106	0x3da46d8d	0.08028708
107	0xbbcc0db2	-0.0062272185
108	0x3dcfa85a	0.101395324
109	0xbbcee577	-0.0063139754
110	0x3bbb3146	0.005712661
111	0x3d994097	0.07483023
112	0x3dab6fb6	0.083709165
113	0xbcc81b97	-0.024427218
114	0x3b7279fb	0.0036998976
115	0x3db55224	0.08853558
116	0x3d328d62	0.043591864
117	0x3dbe54e4	0.09293535
118	0x3dd57cdb	0.10424205
119	0x3d3b01a0	0.045655847
120	0x3f30f862	0.69129
121	0xbe088506	-0.13331994
122	0xbdeed896	-0.11662404
123	0x3f3eee34	0.7458222
124	0x3ab89c2d	0.001408463
125	0x3e2b9433	0.16755752
126	0x3e24114d	0.16022225
127	0x3ac47478	0.0014988324
128	0x3b65c81f	0.0035061908
129	0x3db15885	0.08659462
130	0x3da0def4	0.07855025
131	0x3c0498bb	0.008093054
132	0x3ad5bfde	0.0016307791
133	0x3da5b5dc	0.080913275
134	0x3d94589a	0.07243462
135	0x3b149585	0.0022672128
136	0xbafb911f	-0.001919303
137	0x3c661ff6	0.014045706
138	0x3c83d471	0.01609251
139	0x378729e9	1.611277e-05
140	0x379b1af4	1.848999e-05
141	0x3c345708	0.011007078
142	0x3c600445	0.013672893
143	0xb69ec1d4	-4.7313315e-06
144	0x3d4586b4	0.048224166
145	0x3b3a8385	0.002845974
146	0x3b814a98	0.00394566
147	0x3af5c324	0.0018750173
148	0x3e7e84b7	0.24855314
149	0xbd945c10	-0.07244122
150	0xbd9a229d	-0.07526133
151	0x3e11184f	0.14169429
152	0x3d4b16ec	0.049582407
153	0x3ce318b6	0.027721744
154	0x3cd1ac30	0.0255948
155	0x3d371cd0	0.044705212
156	0x3c508db6	0.012729099
157	0x3dfaa4f2	0.12238492
158	0x3de8d055	0.11367861
159	0x3b9d5ac6	0.004802081
160	0x3d837a29	0.064197846
161	0x3d1d33da	0.038379528
162	0x3d317b10	0.043330252
163	0x3c80dcd6	0.015730303
164	0x378355ea	1.5656424e-05
165	0x3c1e7310	0.009670988
166	0x3bfb6750	0.007672228
167	0x3707fcae	8.105459e-06
168	0x3b828410	0.0039830282
169	0x3c96c9c7	0.018406762
170	0x3c57f56a	0.01318107
171	0x3b2e6b91	0.0026614408
172	0x3d6fd995	0.05855711
173	0xbbd9527c	-0.0066321474
174	0xb8c4112a	-9.349205e-05
175	0x3cfe02b8	0.031007156
176	0x3e03296f	0.12808774
177	0xbd0d082c	-0.03443162
178	0xbcd2a9ba	-0.025715698
179	0x3dad162a	0.08451493
180	0x3e1ab08e	0.15106413
181	0xbd54dbac	-0.051967308
182	0xbd03f11a	-0.032212354
183	0x3dad2f20	0.08456254
184	0x3d853d96	0.06505887
185	0x3c89faec	0.016843282
186	0x3cb1a70d	0.021686101
187	0xba1a1978	-0.0005878429
188	0xbc479705	-0.012182002
189	0x3d52b198	0.051438898
190	0x3d61e901	0.05515385
191	0xbb2a70d6	-0.0026007197
192	0x3cc8dc70	0.024519175
193	0x3c0aa423	0.008461985
194	0x3c542c7e	0.012950061
195	0x3c99527f	0.018716095
196	0xbc2e949d	-0.010655549
197	0x3dd8f2ab	0.1059316
198	0x3dc59087	0.09646707
199	0xbbe6ffca	-0.0070495354
200	0xb72ba704	-1.0231281e-05
201	0x3cf23fa8	0.02957137
202	0x3ceb6f85	0.0287397
203	0x3728db20	1.0064599e-05
204	0x3d379f9f	0.04482996
205	0x3e092cb1	0.13395955
206	0x3e0bb5bd	0.13643546
207	0x3d043d4b	0.032285016
208	0xbb6aae65	-0.0035809514
209	0x3ebb1006	0.36535662
210	0x3eb015f5	0.34391752
211	0x3c15c41f	0.009140997
212	0x3d4c698e	0.049905352
213	0x3df6831b	0.12036725
214	0x3e1da273	0.15394
215	0x3d246c7e	0.04014253
216	0x3c1b3973	0.009474146
217	0x3c912e83	0.017722374
218	0x3c9d86dd	0.019229347
219	0x3c01a701	0.007913352
220	0x3d1062e3	0.035250556
221	0x3d9ca8c8	0.0764938
222	0x3db4687c	0.08808991
223	0x3cc4cd66	0.024023723
224	0x3d9d115a	0.07669325
225	0xbd1ce4b0	-0.03830403
226	0xbc633d0b	-0.013869534
227	0x3d551e64	0.052030936
228	0x3d72fb7f	0.059321877
229	0x3dc2cff7	0.095123224
230	0x3db76f63	0.08956792
231	0x3d1ba271	0.037996713
232	0x3d1e03f0	0.038577974
233	0x3e436a19	0.19083442
234	0x3e30114c	0.17194098
235	0x3d052a3d	0.032510985
236	0x3e218409	0.15773024
237	0xbe2c3b81	-0.16819574
238	0xbe2b4926	-0.16727123
239	0x3d6442a5	0.05572762
240	0x3ce23439	0.027612792
241	0x3dab5f62	0.08367802
242	0x3db3730c	0.08762178
243	0x3c37ced9	0.01121875
244	0x3c077daf	0.008269711
245	0x3e0e3d6d	0.1389062
246	0x3e1718f5	0.14755614
247	0x3b9203f5	0.004456038
248	0x3d2084ba	0.039189078
249	0x3e43d01b	0.19122355
250	0x3e27d8d9	0.16391315
251	0x3daf0a68	0.08546907
252	0x3e0849ab	0.13309352
253	0xba03313d	-0.00050045905
254	0x3c729ab5	0.014807393
255	0x3de1886e	0.1101235

gc1.bias f4 [4]
0	0xbe62fe7d	-0.22167392
1	0x3d8c4788	0.06849581
2	0x3d84b10d	0.06479082
3	0xbe9c8251	-0.30568174

gc2.weight f4 [4, 2]
0	0xc01f563e	-2.4896388
1	0x404f7b6d	3.2419083
2	0x403ad2eb	2.9191234
3	0xc02a8993	-2.6646469
4	0x402cd9c6	2.7007918
5	0xc0294e76	-2.6454139
6	0xc0571c26	-3.361093
7	0x405ff8c6	3.499559

gc2.bias f4 [2]
0	0x3fa55f86	1.2919776
1	0xbf552149	-0.83253914
