Codes/Meta-GCN/Data/PredictResult/save6/0/model.pkl (torch, 20895 bytes, 4 tensors)

gc1.weight f4 [1207, 4]
-0.1284318 0.4454822 0.41692454 0.18163446 -0.05679223 0.1539761 0.21795519 0.11916014
-0.018866627 0.01934983 0.045115586 0.005046108 -0.033600494 0.059477735 0.063265905 0.09418323
-0.20471045 0.7826729 0.7555575 0.85004616 -0.008259377 0.03389922 0.03563919 0.019896457
-0.087813504 0.11078277 0.27681428 0.075646356 0.25558415 0.035242133 0.039969403 0.024541298
0.06879849 0.0475429 0.062445294 0.014845241 -0.0066673704 -0.012843107 -0.01767147 0.0045232032
0.11841853 0.0029905734 0.0064103184 0.004511849 0.048896316 0.025021043 0.020549195 0.030838536
0.09788491 0.009701817 0.009076787 0.063302495 -0.04907366 0.075417325 0.07368088 0.07605173
0.018242836 0.024473151 0.02573269 0.029842583 -0.026000498 0.0010716538 0.007835062 0.05124289
0.025113113 -0.0011880258 0.0026964815 0.034638006 -0.038667917 0.054884385 0.05823813 0.015110699
0.020791033 0.041982133 0.042598527 0.034728613 0.020868538 0.02540225 0.03055297 0.03181002
-0.1322112 0.394911 0.41539162 0.18921919 -0.058955926 0.07714949 0.0839005 0.071849585
0.09261109 0.0013095376 -0.002527327 0.0031589423 0.02298835 0.027839854 0.035798114 0.0013657926
-0.10718035 0.10354848 0.1383025 0.083313726 -0.03881157 0.3339907 0.32251438 0.22054674
0.19326207 0.014252905 0.017693147 -9.84473e-06 -0.0148968315 0.076471 0.07671784 0.020578986
-0.14471078 0.27619788 0.27972645 0.124358356 0.001275325 0.050596047 0.08647124 0.019041223
-0.028471438 0.8192453 0.74503297 0.8461159 0.013152245 0.011271375 0.014697132 0.01119945
0.05474039 0.011056663 0.015205249 0.008999876 0.08370002 0.006135617 0.003921586 -1.0113884e-05
-0.010559981 0.0059269383 0.0045093303 4.225865e-06 -0.034183778 1.3656062e-05 5.59159e-07 -1.0050469e-05
-0.043821972 0.065428205 0.07068879 0.03741536 -0.049692612 0.41342825 0.41721278 0.27133837
-0.060668502 0.13606003 0.18850274 0.12734361 0.078737155 0.028572368 0.038585566 0.006720896
0.118666604 0.055836793 0.070935644 0.004022489 -0.019178284 -1.7573174e-06 1.3139017e-05 3.5718779e-06
0.0001167829 0.016905302 0.00857982 1.8352315e-05 -0.056106944 0.077329114 0.07452954 0.06235153
-0.07200656 0.38859946 0.36327586 0.15770017 -0.06930737 0.2054392 0.25251898 0.15695278
-0.0021726748 0.04401866 0.06411469 0.020851547 -0.020402636 0.030943664 0.04362819 0.010444989
-0.050461173 0.07953492 0.084794015 0.0862793 0.014516381 0.010774261 0.016102925 -0.0034458006
0.033379328 1.0638783e-05 1.5339496e-05 1.219455e-05 0.03809536 0.07849156 0.09285955 0.12147646
0.18697695 0.05739932 0.065331906 0.036823828 -0.08439303 0.39575684 0.39504033 0.26671994
-0.0052689817 0.039835844 0.039986912 0.009047213 0.11286011 0.024767779 0.028175639 0.04452689
0.0709555 0.026754702 0.038578738 0.11111315 -0.05866059 0.11933974 0.15887117 0.15601793
0.09722941 0.0051214173 0.009611789 0.033090707 -0.17073204 0.38625538 0.36002344 0.5009196
0.0671714 0.030477092 0.033314608 0.04489148 0.1259323 0.017354684 0.023761498 0.015461403
-0.093976155 0.2546477 0.24442704 0.15399703 -0.0903274 0.65608996 0.67809105 0.7448609
00000000: a083 03be 3e16 e43e 2277 d53e 62fe 393e
00000010: f89e 68bd e9ab 1d3e a52f 5f3e 3b0a f43d
00000020: 2f8e 9abc 8983 9e3c 1fcb 383d d259 a53b
00000030: aca0 09bd ed9e 733d 8e91 813d 23e3 c03d
00000040: 9e9f 51be 405d 483f 376c 413f a09c 593f
00000050: 5752 07bc e9d9 0a3d 66fa 113d e5fd a23c
00000060: 91d7 b3bd 14e2 e23d 9aba 8d3e 7aec 9a3d
00000070: eddb 823e 0e5a 103d f5b6 233d d50a c93c
00000080: 39e6 8c3d 58bc 423d a3c6 7f3d 7439 733c
00000090: f579 dabb e56b 52bc c2c3 90bc 6137 943b
000000a0: 6a85 f23d 7ffd 433b a60d d23b 22d8 933b
000000b0: 8147 483d eef8 cc3c c956 a83c 19a1 fc3c
000000c0: e277 c83d 5ff4 1e3c ceb6 143c bda4 813d
000000d0: 7601 49bd 6674 9a3d 00e6 963d 02c1 9b3d
000000e0: 0072 953c eb7b c83c 5dcd d23c 6f78 f43c
000000f0: fffe d4bc bc76 8c3a a25e 003c 11e4 513d
00000100: 04ba cd3c 88b7 9bba 74b7 303b 95e0 0d3d
00000110: 4062 1ebd 73ce 603d 1b8b 6e3d de92 773c
00000120: f551 aa3c 75f5 2b3d cb7b 2e3d 973f 0e3d
00000130: 7ff4 aa3c 6118 d03c 394a fa3c 394b 023d
00000140: 5f62 07be c631 ca3e 36ae d43e adc2 413e
00000150: c57b 71bd 8d00 9e3d 06d4 ab3d e025 933d
00000160: e2aa bd3d caa4 ab3a 83a1 25bb 4206 4f3b
00000170: 1052 bc3c 6810 e43c 0ba1 123d 6504 b33a
00000180: 5f81 dbbd 3a11 d43d 2c9f 0d3e 63a0 aa3d
00000190: e1f8 1ebd d400 ab3e 9b20 a53e 01d7 613e
000001a0: 7ee6 453e 0485 693c 38f1 903c cb2a 25b7
000001b0: d711 74bc d49c 9c3d 3e1e 9d3d 4395 a83c
000001c0: 102f 14be cf69 8d3e 4e38 8f3e 98af fe3d
000001d0: ce28 a73a cd3d 4f3d d517 b13d 57fc 9b3c
000001e0: ef3c e9bc 0fba 513f 7bba 3e3f 0d9b 583f
000001f0: 847c 573c 93ab 383c 3dcc 703c e67d 373c
00000200: 7637 603d 0127 353c 701f 793c 3774 133c
00000210: eb6a ab3d 490d c93b a680 803b cdae 29b7
00000220: c503 2dbc c336 c23b 01c3 933b e7cb 8d36
00000230: 4a04 0cbd 571c 6537 1d19 1635 709e 28b7
00000240: ab7e 33bd 39ff 853d 49c5 903d d940 193d
00000250: 7b8a 4bbd deac d33e ea9c d53e ddec 8a3e
00000260: 897f 78bd 5253 0b3e dd06 413e 5d66 023e
00000270: f240 a13d 9910 ea3c e60b 1e3d f63a dc3b
00000280: 7a07 f33d 1fb5 643d b546 913d 15cf 833b
00000290: c71b 9dbc f7dc ebb5 a66f 5c37 65b4 6f36
000002a0: 58e9 f438 fd7c 8a3c 6092 0c3c 4cf3 9937
000002b0: 65d0 65bd ba5e 9e3d f2a2 983d 5164 7f3d
000002c0: 2d78 93bd 82f6 c63e 4bff b93e 277c 213e
000002d0: 06f1 8dbd a75e 523e 2b4a 813e 3bb8 203e
000002e0: 6f63 0ebb e94c 343d 904e 833d ddd0 aa3c
000002f0: 6e23 a7bc 917d fd3c 79b3 323d 7621 2b3c
00000300: 60b0 4ebd 34e3 a23d 7ca8 ad3d 34b3 b03d
00000310: 1dd6 6d3c 8786 303c 48ea 833c f1d2 61bb
00000320: c3b8 083d 3a7d 3237 51ad 8037 3297 4c37
00000330: e109 1c3d 2fc0 a03d 262d be3d a6c8 f83d
00000340: e376 3f3e 8d1b 6b3d bccc 853d 95d4 163d
00000350: 41d6 acbd a4a0 ca3e ba42 ca3e 848f 883e
00000360: 6ca7 acbb e92a 233d 51c9 233d c33a 143c
00000370: 3423 e73d cce5 ca3c 99d0 e63c d461 363d
00000380: 1e51 913d ad2c db3c bd04 1e3d 4b8f e33d
00000390: 1646 70bd 6568 f43d 20af 223e 2ac3 1f3e
000003a0: 3720 c73d 90d1 a73b c47a 1d3c 1f8a 073d
000003b0: 61d4 2ebe 44c3 c53e fe54 b83e 443c 003f
000003c0: 2991 893d 18ab f93c e674 083d 21e0 373d
000003d0: 66f4 003e 692b 8e3c 79a7 c23c d351 7d3c
000003e0: 9276 c0bd 2f61 823e 154b 7a3e 66b1 1d3e
000003f0: 92fd b8bd 83f5 273f 6097 2d3f 34af 3e3f

gc1.bias f4 [4]
0.056354243 -0.4434512 -0.40733665 -0.645364
00000000: b5d3 663d 090c e3be 6e8e d0be 9336 25bf

gc2.weight f4 [4, 2]
3.0499325 -3.1005862 -1.2322081 0.9388008 -1.0416456 1.006093 -1.3399915 1.2127812
00000000: 1832 4340 0170 46c0 ffb8 9dbf 4055 703f
00000010: a554 85bf a8c7 803f d784 abbf 6a3c 9b3f

gc2.bias f4 [2]
1.6481725 -0.9590414
00000000: 51f7 d23f bd83 75bf
