Codes/Meta-GCN/Data/PredictResult/save2/1/model.pkl (torch, 20895 bytes, 4 tensors)

gc1.weight f4 [1207, 4]
-0.04843682 0.18375286 -0.0581779 0.20787394 0.0641824 -0.022349348 0.07469684 -0.02680871
0.018306777 0.0028781511 0.018795112 -0.0012200136 -0.003609903 0.052270263 -0.008500485 0.04317495
-0.07520637 0.2390499 -0.08627243 0.21888351 0.044704165 -0.0036497745 0.0418209 -0.005642101
-0.053619754 0.1696635 -0.06721695 0.17652638 0.18213782 -0.03375175 0.19126058 -0.034708887
0.04636763 -0.018212749 0.061063148 -0.01681475 0.0073603787 0.005193054 0.007693155 0.006714863
0.016590381 -0.00646494 0.012571612 -0.0008662608 -0.00045963336 0.02471344 -0.001819833 0.022832524
-0.0077468026 0.03227728 -0.010645594 0.024455508 -0.01708895 0.03557501 -0.01491285 0.03668871
0.0042366823 -0.00011493598 0.0018192969 -0.0028384915 -0.026237516 0.11315263 -0.033804547 0.10170889
-0.038882658 0.11335685 -0.040249407 0.09474806 0.01707826 -0.009362264 0.015493612 -0.007114583
-0.0026286333 0.006918909 -0.002818496 0.005847184 0.0015493723 -0.00062773837 -0.00037203153 0.0019693337
-0.05771163 0.22869423 -0.059469663 0.24252449 -0.031512734 0.057421 -0.03610761 0.06126874
0.13035436 0.007466039 0.121885665 0.0055522895 -0.003920105 0.0014353583 -0.005375582 0.0057982765
-0.026994321 0.0622599 -0.03627536 0.062774554 -0.06135595 0.15927531 -0.0737563 0.1602277
0.2595354 -0.025314832 0.25182933 -0.028064888 -0.011647859 0.02463886 -0.020656299 0.031937934
-0.088379785 0.25350937 -0.08272774 0.25385085 0.00017203705 0.03719662 -0.0083409 0.043315683
-0.077411704 0.17031403 -0.08524577 0.17470011 0.05354024 -0.0042538648 0.061677612 -0.0063771023
0.03995858 -0.008945115 0.029722946 -0.0010640173 0.18117587 -0.006474208 0.16864361 -0.0068065734
0.043670807 -0.004495136 0.03986352 -0.0029180294 0.0131922085 0.007987438 0.017070614 0.007291518
-0.013552023 0.0427336 -0.017668745 0.03865283 -0.03977163 0.079911664 -0.04274483 0.08881594
-0.009906664 0.03451461 -0.009771419 0.033654433 0.22179142 -0.012170343 0.19400486 -0.0057059163
0.08284156 -0.005806572 0.07729108 -0.010289867 0.0054989993 -0.0042535565 0.0025399926 -0.003292364
0.0031943528 -0.005582457 0.008381471 -0.009564664 -0.013685553 0.032148633 -0.019901944 0.03602776
-0.02769957 0.03908194 -0.034803923 0.031887636 0.009664562 0.018752169 0.0027318294 0.018813232
0.092529036 -0.018703021 0.08674555 -0.017966865 -0.0058186613 0.0035470652 -0.008990931 0.0063714134
-0.025722008 0.064687975 -0.03933013 0.065955065 0.0014355828 0.010340878 0.0026576433 0.009771088
0.02184451 -0.003989778 0.013779424 -0.003820501 0.07383799 -0.013524461 0.06485099 -0.015715323
0.19738409 -0.050420705 0.22023042 -0.048501316 0.09597095 -0.023712851 0.09156541 -0.021526529
0.019446403 -0.012539071 0.021654235 -0.009661734 -0.023016155 0.038503673 -0.02691748 0.046320792
-0.014470183 0.06950398 -0.011420334 0.07299094 0.12513816 -0.0472033 0.105567984 -0.056573365
0.011847805 0.00482965 0.005541601 0.008573851 -0.06710765 0.24874541 -0.07223243 0.25178766
-0.014091758 0.02840386 -0.012485009 0.030928502 -0.010435518 0.009857486 -0.011918074 0.014337325
-0.05007366 0.09193475 -0.0548541 0.079574496 0.06316509 -0.027383609 0.059774727 -0.035390276
00000000: b065 46bd b629 3c3e f34b 6ebd e8dc 543e
00000010: 1072 833d fb15 b7bc a8fa 983d f19d dbbc
00000020: 18f8 953c 5d9f 3c3b 35f8 993c dde8 9fba
00000030: 1f94 6cbb 5819 563d 9e45 0bbc 37d8 303d
00000040: cc05 9abd 7fc9 743e 9aaf b0bd 0023 603e
00000050: b71b 373d 0e31 6fbb 644c 2b3d 60e1 b8bb
00000060: 63a0 5bbd 45bc 2d3e 0aa9 89bd 55c3 343e
00000070: 5682 3a3e 463f 0abd d0d9 433e e82a 0ebd
00000080: fceb 3d3d e732 95bc 5a1d 7a3d 16bf 89bc
00000090: 552f f13b 7f2a aa3b dd16 fc3b 5a08 dc3b
000000a0: 8de8 873c d9d7 d3bb 2af9 4d3c c715 63ba
000000b0: f2fa f0b9 d773 ca3c 7687 eeba 460b bb3c
000000c0: e4d8 fdbb 2e35 043d dc6a 2ebc eb56 c83c
000000d0: 20fe 8bbc 1ab7 113d 0755 74bc e746 163d
000000e0: ded3 8a3b c909 f1b8 7975 ee3a fc05 3abb
000000f0: 0ff0 d6bc 91bc e73d a376 0abd c04c d03d
00000100: 6c43 1fbd a327 e83d 90dc 24bd 450b c23d
00000110: b5e7 8b3c 2e64 19bc ebd8 7d3c 7321 e9bb
00000120: 2645 2cbb 04b8 e23b 84b6 38bb bc99 bf3b
00000130: 4f14 cb3a cf8e 24ba 3a0d c3b9 f00f 013b
00000140: 0863 6cbd d22e 6a3e 7696 73bd 5758 783e
00000150: 7f13 01bd 4832 6b3d 93e5 13bd eef4 7a3d
00000160: 9d7b 053e ada5 f43b 319f f93d fbef b53b
00000170: 3974 80bb a222 bc3a a625 b0bb 78ff bd3b
00000180: 3223 ddbc 3d04 7f3d 7995 14bd f28f 803d
00000190: 6050 7bbd 1119 233e 8b0d 97bd bb12 243e
000001a0: d3e1 843e 0d61 cfbc c6ef 803e 56e8 e5bc
000001b0: a9d6 3ebc 6fd7 c93c 6637 a9bc 5ad1 023d
000001c0: 7600 b5bd fbcb 813e 296d a9bd bdf8 813e
000001d0: d864 3439 7c5b 183d 45a8 08bc c96b 313d
000001e0: 078a 9ebd cd66 2e3e 5695 aebd 96e4 323e
000001f0: 034d 5b3d 0164 8bbb aaa1 7c3d 03f7 d0bb
00000200: 9cab 233d 888e 12bc 897d f33c 7f76 8bba
00000210: 2b86 393e 9825 d4bb e9b0 2c3e ad09 dfbb
00000220: 29e0 323d ef4b 93bb ee47 233d 693c 3fbb
00000230: 2224 583c bedd 023c acd7 8b3c b0ed ee3b
00000240: 4e09 5ebc 6d09 2f3d 0bbe 90bc 6e52 1e3d
00000250: 94e7 22bd baa8 a33d 3415 2fbd 22e5 b53d
00000260: 8f4f 22bc 315f 0d3d 4d18 20bc 3bd9 093d
00000270: 4a1d 633e 1e66 47bc 36a9 463e b2f8 babb
00000280: d6a8 a93d 0e45 bebb c94a 9e3d d596 28bc
00000290: f330 b43b 6b61 8bbb 0176 263b b4c4 57bb
000002a0: 5958 513b 0bed b6bb 7052 093c 1cb5 1cbc
000002b0: 5f39 60bc 49ae 033d 6709 a3bc d891 133d
000002c0: 35ea e2bc 6214 203d 8f8e 0ebd 9c9c 023d
000002d0: 1c58 1e3c 269e 993c 7e08 333b 351e 9a3c
000002e0: dd7f bd3d 1437 99bc a7a7 b13d 3f2f 93bc
000002f0: 78aa bebb e175 683b b34e 13bc 4ac7 d03b
00000300: f6b6 d2bc 217b 843d a118 21bd 7313 873d
00000310: 2a2a bc3a c96c 293c db2b 2e3b ea16 203c
00000320: 42f3 b23c afbc 82bb 18c3 613c 5f61 7abb
00000330: 5f38 973d b395 5dbc 99d0 843d 6cbd 80bc
00000340: 0e1f 4a3e f185 4ebd 1584 613e 51a9 46bd
00000350: 6b8c c43d 7441 c2bc a586 bb3d 6758 b0bc
00000360: 104e 9f3c ad70 4dbc 3964 b13c 404c 1ebc
00000370: 608c bcbc 07b6 1d3d 0c82 dcbc dfba 3d3d
00000380: 5914 6dbc 1a58 8e3d 5a1c 3bbc 467c 953d
00000390: 3824 003e 3f58 41bd 0734 d83d 79b9 67bd
000003a0: 4c1d 423c 0a42 9e3b 5296 b53b 5679 0c3c
000003b0: bc6f 89bd 1eb7 7e3e 99ee 93bd 50ea 803e
000003c0: 1ee1 66bc 36af e83c ec8d 4cbc c55d fd3c
000003d0: bcf9 2abc 4b81 213c 0744 43bc 19e7 6a3c
000003e0: 0a1a 4dbd 4948 bc3d b1ae 60bd f4f7 a23d
000003f0: b35c 813d 9753 e0bc 58d6 743d 65f5 10bd

gc1.bias f4 [4]
0.10111693 -0.0020039184 0.12003915 -0.0004384654
00000000: 6516 cf3d 2c54 03bb 16d7 f53d d4e1 e5b9

gc2.weight f4 [4, 2]
2.6230967 -2.7959526 -2.7191489 2.9968793 2.8937733 -2.7035828 -3.0252147 2.8064382
00000000: d1e0 2740 e3f0 32c0 8906 2ec0 dfcc 3f40
00000010: 9533 3940 8007 2dc0 1e9d 41c0 af9c 3340

gc2.bias f4 [2]
0.536171 -0.4608162
00000000: 8142 093f 1af0 ebbe
