Codes/Meta-GCN/Data/PredictResult/save6/1/model.pkl (torch, 20895 bytes, 4 tensors)

gc1.weight f4 [1207, 4]
00000000: 9895 d3bd 03e1 ddbd 2efe 3b3e 4118 d0bd
00000010: 06d5 3a3b 0e1b 713c c8c6 123d d130 ed3b
00000020: 2ab7 ac3c ed58 9b3c 0b2c b1bc 1f05 bd3c
00000030: da86 103e ecf5 033e c9d2 bbbd cbe9 fe3d
00000040: d2e5 d8bd 4015 d3bd 36d5 c03e 33fc dcbd
00000050: ff00 2cbc 6679 eeba 2efd ee3b 046f a9ba
00000060: c908 9fbd 8d90 91bd a1d8 243e 1253 adbd
00000070: c080 ff3d 147b df3d 5739 d6bc 8296 083e
00000080: 8f0b 31bc 0dfa f0bb 86d8 7c3c 7199 16bc
00000090: ccd5 9abc 07cc a6bc f54d 753d 5dfc aebc
000000a0: 0088 353c 479f 153c 8bd8 d43b d5a8 493c
000000b0: 9dd7 85bc fae4 7fbc 1e8b 663d 6e77 a4bc
000000c0: 0b69 db3a aec4 653b 401f b63c 2ac7 b13b
000000d0: cbc2 45bd 69bb 49bd 338a fb3d 072d 2cbd
000000e0: ac04 afba c145 a8ba 81e0 f53c c15b f939
000000f0: bf33 5b3d 61c4 293d 171c 6fbb 0ea3 133d
00000100: 498f 13bd 2e8e 18bd 9f4a 933d f1bb 17bd
00000110: ab75 96bc 8c25 8cbc fdf0 103d c46e a8bc
00000120: 90c1 a2bc e388 94bc dd0d 853d 32bd c6bc
00000130: c0e1 84bc e5c8 86bc cbee 403d 9a03 51bc
00000140: 8c6d dfbd 0027 d0bd 7075 9d3e 93a5 cfbd
00000150: 50c0 ecbd 9f77 e4bd 1a55 313e dedf dabd
00000160: e138 523b 4664 883b dace 263d 9fc5 9eba
00000170: 3b44 e4bc ad1b f2bc 4cd7 263d d3ed cbbc
00000180: ac91 8b3d 7cb4 b03d 1199 2fbd ae8c aa3d
00000190: 3b30 d4bd 12ec d8bd cd3a 5b3e d1be d2bd
000001a0: ce10 9d3d 0a23 903d f742 a53c b25c 8e3d
000001b0: eb81 a7bb 067b 7cbb 0795 b83c 4ed2 31bc
000001c0: 2c6d c3bd b5a8 bfbd 17bb 8f3e 2be3 c7bd
000001d0: 2a43 a4bc ec46 8cbc 725e 893d 732d 89bc
000001e0: 17cc d4bd 0165 dabd 4ffe a93e 6a46 e7bd
000001f0: 3f7c 993c c50a 093d 512e 863c 9f35 f93c
00000200: dbb8 bcbb 0f11 323b 3675 7c3c b0bf 17bb
00000210: e8ad 8d3d 0b5c b23d 5a68 753c b9e1 6b3d
00000220: 8092 7d3c 3353 763c c95d 9b39 264d 543c
00000230: d02f 8e3a d973 5d3b 6b2c 0d3c 2798 9d3b
00000240: a715 0dbd a543 0abd 60b3 993d 1717 d8bc
00000250: 4d66 8cbc 7fda a5bc e6d9 493d b13c 45bc
00000260: 9a32 92bc c653 babc 4e4a 9b3d 8146 56bc
00000270: 5ce4 e83d 2de5 d93d 47de ea3b 7475 e03d
00000280: a5a9 1ebb ce8f 64bb c6f9 fe3c ffd5 dfba
00000290: 7009 8137 ca38 a739 f2d7 27ba 6da4 8c39
000002a0: c1cf 7dbc 2fcd 7fbc 4a5b 873c bde8 82bc
000002b0: 81dc a9bd 52c6 b8bd e1a7 2f3e ec13 b6bd
000002c0: 44ce 57bd 263c 57bd 24de 043e f589 39bd
000002d0: dc53 8fbd fb21 8cbd 7404 183e c3cf 82bd
000002e0: def3 e7bb ea9a e5bb e48b c63c 6a48 f6bb
000002f0: 8caf cfbc 26d5 ebbc f7e8 113d 585a c3bc
00000300: fe63 49bd a083 3abd cbae d03d 6b24 56bd
00000310: bdb8 96bc 4da2 69bc 27cb 0e3d 91ef 76bc
00000320: a202 b43c 9c48 1f3c 12b6 75bb 65f6 c33c
00000330: a130 ac3c cb31 9a3c fc2c d23c 8467 663c
00000340: 0b5f 863d 3ca3 573d db4a 94bb d67b 643d
00000350: c168 51bd e55c 30bd a4aa 283e 31e3 28bd
00000360: 3015 0dbd 4b80 1bbd 355d 393d 9022 0cbd
00000370: aedd 95bb bbb4 723a cafc 803c d079 c7bb
00000380: 9b59 0abd 2a12 14bd 321c c63d 7fd3 0cbd
00000390: ee05 5dbd 1416 5bbd ef97 033e 16ba 5abd
000003a0: 180c 9d3b 81fc 893b ba09 683c ba0a f03a
000003b0: 9403 dfbd e537 e2bd a3e4 893e db28 d5bd
000003c0: ee11 1fbd 54a7 21bd 20db 853d 5872 18bd
000003d0: f209 a9bc 109c 89bc 56d8 f83c d4e1 8abc
000003e0: 0737 9cbd 6592 7cbd 5221 0d3e 0d54 9dbd
000003f0: 3708 f4bd b90a eebd 6971 9d3e 8c7f f4bd
-0.10331267 -0.10833933 0.1835868 -0.10160876 0.002850832 0.014715923 0.035834104 0.0072384854
0.021083433 0.018963302 -0.021627447 0.023073731 0.14113942 0.1288678 -0.091710635 0.12446936
-0.1059071 -0.103067875 0.37662667 -0.10790291 -0.010498284 -0.0018194139 0.007293365 -0.0012926762
-0.077653475 -0.07107649 0.16098262 -0.0846311 0.12475729 0.10912147 -0.026150389 0.13338664
-0.010805978 -0.007354027 0.015432483 -0.009191857 -0.018900774 -0.02036096 0.0598888 -0.02136057
0.011079788 0.009132213 0.0064955405 0.012308319 -0.016338164 -0.015618557 0.056285016 -0.02007648
0.0016739679 0.0035059857 0.022231698 0.0054253535 -0.048281472 -0.049250994 0.12282219 -0.04203513
-0.0013352833 -0.0012838171 0.030014278 0.00047561343 0.053516146 0.041447047 -0.0036485249 0.036044173
-0.03602532 -0.037244968 0.07191967 -0.03704447 -0.018366655 -0.017107747 0.035386074 -0.02056063
-0.019867688 -0.018131679 0.06496785 -0.024260137 -0.016220927 -0.016453216 0.04710273 -0.012757206
-0.10909566 -0.10163689 0.3075366 -0.10139003 -0.11560118 -0.111556284 0.1731762 -0.106872305
0.003207736 0.004162344 0.040724613 -0.0012113339 -0.027864566 -0.029554212 0.040732667 -0.024893677
0.06814894 0.08628175 -0.042870585 0.08327614 -0.10360762 -0.10591902 0.2140915 -0.102903016
0.07669221 0.07037933 0.020173533 0.06951274 -0.005111923 -0.0038525476 0.022532 -0.010853363
-0.09542307 -0.0935835 0.28072426 -0.09760126 -0.020051558 -0.017123662 0.06707467 -0.016745305
-0.103904895 -0.10663796 0.33201835 -0.11292727 0.018736003 0.033457536 0.016379507 0.030421076
-0.005759341 0.0027170812 0.015408805 -0.0023155026 0.069179356 0.08708962 0.014978493 0.057588313
0.015476823 0.015034485 0.0002963378 0.012957847 0.001084799 0.0033790974 0.008616547 0.0048093977
-0.034444477 -0.033755917 0.07504916 -0.026378198 -0.017138625 -0.020245789 0.04928007 -0.012038396
-0.017846394 -0.022745024 0.07582532 -0.013078333 0.11371681 0.10639415 0.007167611 0.109599024
-0.0024210003 -0.0034875753 0.03112496 -0.0017077326 1.5382393e-05 0.00031895033 -0.0006402723 0.00026825388
-0.015491427 -0.015612884 0.016523022 -0.015980119 -0.08294011 -0.090222016 0.17153884 -0.088905185
-0.052686945 -0.052547596 0.12975365 -0.04529758 -0.06998417 -0.06842419 0.14845449 -0.06387284
-0.007078632 -0.0070069926 0.024236627 -0.0075159566 -0.025352262 -0.02878816 0.035622563 -0.02384679
-0.049167626 -0.045535684 0.10189589 -0.052280825 -0.018398637 -0.014259887 0.03486171 -0.0150717655
0.021973912 0.009721901 -0.0037492556 0.023921201 0.021019282 0.018822571 0.025656216 0.014062766
0.06561097 0.052645907 -0.004525525 0.05578216 -0.05112529 -0.04305734 0.16471344 -0.04123229
-0.034444034 -0.037964147 0.045254905 -0.03421265 -0.0045735454 0.00092584983 0.01574554 -0.006087519
-0.03377686 -0.036150135 0.096733466 -0.034381386 -0.053960733 -0.053487852 0.12850927 -0.05340012
0.0047927015 0.004211009 0.014162475 0.0018313744 -0.10889354 -0.11045817 0.26932248 -0.10408183
-0.03883546 -0.039466217 0.065359354 -0.03721842 -0.020634625 -0.01679805 0.030376595 -0.016953386
-0.07627683 -0.06166305 0.13782242 -0.07682047 -0.11915629 -0.11623139 0.30750588 -0.1193839

gc1.bias f4 [4]
00000000: 86f8 043e e1b7 023e 07bf 3cbd cd8a 063e
0.12985429 0.12765457 -0.046080615 0.13138886

gc2.weight f4 [4, 2]
00000000: a8d4 0f40 e0ad 10c0 a186 1140 5623 0ac0
00000010: 246e 7ec0 e84e 7e40 3676 1240 81e0 0cc0
2.2473545 -2.2606125 2.273842 -2.1584067 -3.9754725 3.973566 2.288465 -2.2012026

gc2.bias f4 [2]
00000000: 9667 823e 86b3 0fbf
0.25469655 -0.56133306
