Codes/Meta-GCN/Data/PredictResult/save7/1/model.pkl (torch, 20895 bytes, 4 tensors)

gc1.weight f4 [1207, 4]
00000000: ec89 cabd 522d 3c3e b1ec 353e f334 cebd
00000010: 5fec 873e 8d93 a5bd 9baf aebd bc19 8d3e
00000020: 1e87 693d 8a79 71bc b12a 8abc c6aa 663d
00000030: ded8 2cbd f612 883d df7f 853d bf41 19bd
00000040: 6f33 69bd 6360 0b3e 83cd 193e 6efb 47bd
00000050: 5a76 4d3d 7083 30bb cd3c 42bc 7d2a 443d
00000060: 0379 3fbd 8c6f f63d 26b1 de3d 5eb7 1dbd
00000070: 5370 d3ba 364b c83c 07c0 7c3c 0951 0cbb
00000080: cdd6 7ab9 4d08 b53c 43c6 613c 7aea 8c3b
00000090: 6db6 d4ba f9a1 0a3c b3c8 a93b 6f35 0abb
000000a0: c528 eb3b 23f3 b43c fd64 103c 9b18 313c
000000b0: 2eb2 213d e5c5 8ebc 48a1 efbc d726 5e3d
000000c0: b9dd 2fbc c8a8 383d 7258 293d 68c7 34bc
000000d0: 4a30 983c 3182 bcbb b719 d1bb ab1e a93c
000000e0: f1ba 8abb 1057 be3b 764a bc3b eb2e 70bb
000000f0: 2836 90bd d653 003e 3182 103e f006 95bd
00000100: 5bda 82bd 64a8 eb3d d569 fa3d f762 78bd
00000110: db57 65bc cfde 513d a1c8 313d 99d6 29bc
00000120: c530 563c 1f9c 18bc 3d87 61bc b10d aa3c
00000130: 8e78 7c3c b1bf b8bc bbe7 b7bc 2b7d b13c
00000140: e637 18bd fd73 143e b143 143e d14c 04bd
00000150: 0519 40bd 1670 f43d 4973 cb3d bcc9 0ebd
00000160: cbe7 1c3d 5b70 8fbb b1a7 4dbc cfda 1e3d
00000170: f764 703c 77f3 bebb 42d1 57bb 1fe6 2b3c
00000180: 3053 9f3d 405c c7bc c3df debc 2468 963d
00000190: c714 efbc a2b9 5f3d aa26 253d bbbc 70bc
000001a0: 6a7e 103d 8565 533c 757e 033c 14e4 053d
000001b0: ca9d 8fbc e2a2 8f3d a565 7e3d 7e1c 9bbc
000001c0: b900 7ebd bb7e 323e 1dab 2f3e 9861 62bd
000001d0: 03aa 433b 3355 0d3d 5eb3 243d a2bf 903b
000001e0: 43c2 9cbd a11a 223e fe37 163e 804f 98bd
000001f0: 6925 143e 46e4 53bc f93d 46bc 6e53 263e
00000200: 125f 533c 51a3 a53c 413c 433c eca4 cf3c
00000210: cb10 d03d 3f60 92bb d10d 6abb d250 cc3d
00000220: e7c2 c2ba 7ed2 583b 2998 193b b020 90ba
00000230: 2b97 963c a2cc 22bc 7110 eebb ab50 5e3c
00000240: 18b2 a03c a32d 5e3c 9683 383c 654c 923c
00000250: ecbc acbc 250b 373d 47de 403d 4f24 e8bc
00000260: 8ec1 853c 98b6 bb3b 04c4 143a c635 bd3c
00000270: 27b9 323d 4dbc 3e3b 9b2b 6d3b d936 423d
00000280: 672b 043d 1475 ff3c 2f21 143d 4365 c43c
00000290: 68a8 143c c50c 26bb c283 fdba 99b6 123c
000002a0: d495 00bb 5a5e 863a 69fa 953a 0a40 33bb
000002b0: 9216 74bd 1b8c 0c3e 3829 003e c478 83bd
000002c0: b0c5 71bd d8c4 163e f598 0a3e 9192 4dbd
000002d0: 9853 31bd 9e3b 043e 2fe2 053e 303a 0fbd
000002e0: f696 d2bb fa43 b13c 0a00 763c 8ac7 9abb
000002f0: 91c6 ae3c b30b 0a3c 829a f13b 01b9 b23c
00000300: 4475 d0bc 655c 8f3d 8df8 883d 6dc3 f7bc
00000310: 31e3 0f3d c50c 1c3c 7919 163b ceaf 203d
00000320: 9fd7 183c ef48 5cbb f50a bcbb 9bb0 5d3c
00000330: 4aeb 053d ffa9 a53b c8a6 4b3a 6c8f 153d
00000340: 8c32 703d 5c12 50bc dc1b a8bc cb36 a13d
00000350: b7f9 003c f8bf 023d 343b bd3c c3e2 333c
00000360: f08e fd3b 0d5a 973c 61dd 543c 01a2 223c
00000370: 5bdc cc3c 3cd2 813b b364 8f3b ffe0 bc3c
00000380: b941 53bc 2c44 0c3d 6c66 fd3c 1439 ccba
00000390: a0bf 4b3d 5793 39bc 7331 75bc 3471 5a3d
000003a0: 10ac cfbc 64f3 483d 1971 433d dcd3 e0bc
000003b0: eada b1bb a7ce deb9 4dd0 25bc c23e 183c
000003c0: 1b3a 99b7 7255 9c3c c4bf b53c 5123 8aba
000003d0: 1f2e ee3b 7062 0539 1d26 a3ba 9fd7 043c
000003e0: d8d6 093e c19c 8dbd 46bd a2bd 07bf 223e
000003f0: 96f3 a2bd 3411 ed3d 93e0 e23d bf8c 95bd
-0.09889588 0.18376663 0.17766072 -0.10068693 0.26547524 -0.08084784 -0.08529588 0.27558696
0.057013623 -0.01473845 -0.01686606 0.056315206 -0.04219901 0.066442415 0.0651853 -0.037416216
-0.056933817 0.13610987 0.15019803 -0.048823766 0.050161697 -0.0026933812 -0.011855316 0.047892082
-0.046746265 0.12032995 0.10873632 -0.03850495 -0.0016131498 0.024449926 0.015426642 -0.0021410605
-0.00023921877 0.022098685 0.013780179 0.0043004127 -0.0016228684 0.008461469 0.005181396 -0.0021088978
0.007176491 0.022088593 0.00881314 0.010809089 0.039476566 -0.017428348 -0.02925171 0.05423626
-0.010734015 0.045082837 0.041344114 -0.01103387 0.018577714 -0.0057528247 -0.0063812393 0.020644506
-0.004233711 0.0058087185 0.005746181 -0.003664906 -0.070415795 0.12531981 0.14112164 -0.07276714
-0.06389304 0.11506727 0.12227217 -0.060641255 -0.013997997 0.051237877 0.043404225 -0.0103661055
0.013073151 -0.009314566 -0.0137651535 0.020758482 0.015409602 -0.022552343 -0.022449365 0.02166613
-0.037162684 0.14497371 0.14478947 -0.03229982 -0.04689886 0.11935441 0.09934098 -0.034860358
0.038306993 -0.0043774075 -0.012552188 0.03878289 0.014672509 -0.005827363 -0.0032931124 0.010491877
0.07779539 -0.02433598 -0.027206307 0.07344082 -0.029184712 0.054620393 0.040320076 -0.014693434
0.035276808 0.012902622 0.008025755 0.032688215 -0.017531294 0.07013489 0.062108655 -0.018934485
-0.062012408 0.17431156 0.17155118 -0.055268854 0.0029855974 0.03450508 0.04021012 0.0044173757
-0.0765424 0.1583047 0.14669797 -0.074370384 0.14467396 -0.012932843 -0.012099736 0.16242763
0.0129010845 0.020219477 0.011916221 0.025347196 0.10159453 -0.00446704 -0.0035713802 0.09976353
-0.0014859111 0.0033084447 0.0023436642 -0.001099607 0.01838263 -0.009936484 -0.0072651436 0.013569037
0.019616172 0.013560685 0.011261841 0.017858693 -0.021086179 0.044688363 0.04708698 -0.028337626
0.016327646 0.005728554 0.00056749606 0.02309693 0.043633606 0.0029103935 0.003618932 0.047415588
0.032267954 0.031183757 0.03616446 0.023974067 0.009073354 -0.00253372 -0.0019341635 0.0089546675
-0.0019620555 0.0010251508 0.0011442426 -0.0027351403 -0.059591837 0.13725321 0.12515724 -0.064195186
-0.05902642 0.14723527 0.13534911 -0.050188605 -0.04329261 0.12913367 0.13074563 -0.0349676
-0.0064266874 0.021638859 0.015014658 -0.004723494 0.021334918 0.008425641 0.007373155 0.021816732
-0.025446542 0.07000045 0.06688032 -0.030244553 0.035128776 0.009524529 0.0022903366 0.03923016
0.009328752 -0.0033612808 -0.005738611 0.013530876 0.032695092 0.0050556655 0.0007768688 0.03651373
0.058641955 -0.01269969 -0.020521097 0.07871779 0.007872037 0.031921357 0.02309952 0.010979357
0.0077379867 0.018475557 0.012992234 0.00992632 0.025007417 0.0039618295 0.004376018 0.023056505
-0.0128940875 0.0342447 0.030932628 -0.0015580975 0.049743295 -0.011326632 -0.014965403 0.053330615
-0.0253506 0.04906024 0.04771528 -0.027444772 -0.005427708 -0.00042497108 -0.010120464 0.009292306
-1.8266079e-05 0.019083712 0.022186168 -0.001053909 0.0072686817 0.00012720539 -0.0012447272 0.008108049
0.13460863 -0.06914664 -0.07946257 0.15893184 -0.079566166 0.11575547 0.110779904 -0.07302236

gc1.bias f4 [4]
00000000: 965f c23d 1926 1d3c ef92 763c 86a8 b33d
0.09490888 0.009591603 0.01504968 0.08772378

gc2.weight f4 [4, 2]
00000000: 7566 2940 8102 2ac0 1511 3fc0 88fe 4640
00000010: ee57 46c0 ad83 4440 452b 2f40 762e 30c0
2.6468785 -2.6564028 -2.9854176 3.1092854 -3.0991168 3.0705369 2.737016 -2.7528358

gc2.bias f4 [2]
00000000: 00b3 fb3e 2ddf 0dbf
0.49160004 -0.55418664
