Codes/Meta-GCN/Data/PredictResult/save4/0/model.pkl (torch, 20895 bytes, 4 tensors)

gc1.weight f4 [1207, 4]
0	0xbd49d5c4	-0.04927613
1	0x3f6077b9	0.8768268
2	0x3f71645f	0.9429378
3	0xbd56b266	-0.052416228
4	0x3ec0db78	0.3766744
5	0x3d0e9391	0.0348087
6	0x3db69784	0.08915618
7	0x3eba0053	0.36328372
8	0x3d297846	0.041374467
9	0x3d82f0b9	0.063935705
10	0x3d9ada84	0.0756121
11	0x3c81ae58	0.015830204
12	0xba6bde67	-0.0008997679
13	0x3e9508f0	0.2910838
14	0x3ea8b5d6	0.3295123
15	0xbc9700e9	-0.018433051
16	0xbe4a3ee6	-0.19750556
17	0x3f1a67d9	0.6031471
18	0x3f52e91c	0.82386947
19	0xbe2a8d8c	-0.16655558
20	0x3df64878	0.12025541
21	0xbd0ce273	-0.034395646
22	0xbc7c28b0	-0.01539056
23	0x3df5e2cc	0.12006149
24	0xbc894088	-0.016754404
25	0x3e2b5258	0.1673063
26	0x3e70c8b0	0.23514056
27	0xbcf26318	-0.029588267
28	0xbc73a838	-0.014871649
29	0x3ded4472	0.115853205
30	0x3de870d4	0.11349645
31	0x3b6ba600	0.0035957098
32	0xbbbffc15	-0.005858908
33	0x3e09a65c	0.13442367
34	0x3e1dcf35	0.15411074
35	0xbc08d8a0	-0.008352429
36	0x3d8dd197	0.06924742
37	0x3d435a02	0.04769326
38	0x3d3a5e98	0.045500368
39	0x3d8e35e0	0.069438696
40	0x3cd6570d	0.026164556
41	0x3da94c04	0.08266452
42	0x3d8d3f41	0.0689683
43	0x3d04d89f	0.03243315
44	0x3cdc75e5	0.026911685
45	0x3d82aa3d	0.063801266
46	0x3d8eceff	0.06973075
47	0x3d643cc2	0.055722006
48	0xbcd4c839	-0.02597438
49	0x3debf427	0.11521178
50	0x3d83df00	0.06439018
51	0xbcd0049d	-0.025392825
52	0xbd2b7506	-0.04185965
53	0x3dbbd246	0.09170966
54	0x3decc88b	0.11561688
55	0xbd092293	-0.03348024
56	0xbcbbe168	-0.02293463
57	0x3bf7a3ab	0.0075573525
58	0xb774e225	-1.4596187e-05
59	0xbb842b2c	-0.004033467
60	0xbd687638	-0.056753367
61	0x3e66e32d	0.22547598
62	0x3e92c867	0.2866852
63	0xbd6bc992	-0.05756528
64	0xbc72313a	-0.014782244
65	0x3e5f8662	0.21828607
66	0x3e86ad57	0.26304123
67	0xbc709df9	-0.014686101
68	0x3d2c9400	0.04213333
69	0x3d157cb7	0.03649589
70	0x3d727be9	0.0592002
71	0x3d5e2f4c	0.054244325
72	0x3d6914c3	0.056904566
73	0x3c936898	0.01799421
74	0x3cd158c1	0.025555016
75	0x3daa4cfb	0.08315464
76	0x3ca56ef5	0.02019451
77	0x3cae3714	0.021266498
78	0x3ce1eac7	0.02757777
79	0x3cdd4e68	0.027014926
80	0xbd87bc52	-0.06627716
81	0x3f1f3eea	0.62205374
82	0x3edf690e	0.43634838
83	0xbc821024	-0.015876837
84	0x3c9bffc2	0.019042853
85	0x3dfa0e51	0.12209762
86	0x3de73277	0.11288922
87	0x3ca61bd5	0.020276943
88	0x3e1c9ad6	0.1529344
89	0x3b8056fd	0.00391662
90	0x3b3e860f	0.0029071604
91	0x3e170a50	0.14750028
92	0x3cbec7dc	0.02328866
93	0x3d4dceb2	0.050245948
94	0x3ce564ca	0.028002162
95	0x3d158dad	0.036512066
96	0x3cf5d7c2	0.030010108
97	0x3dab7741	0.08372355
98	0x3d8b2a38	0.06795162
99	0x3d5b3a60	0.053522468
100	0xbc89ab2b	-0.016805252
101	0x3f4dc0aa	0.8037211
102	0x3ed1c012	0.4096685
103	0xbc325c97	-0.010886333
104	0x3e2b099d	0.16702886
105	0xbb9a53b9	-0.0047096875
106	0x3b8f56a2	0.004374341
107	0x3e280102	0.16406634
108	0x3c7eb5f9	0.015546315
109	0x3df683cf	0.12036859
110	0x3d8cdf92	0.0687858
111	0x3c963642	0.018336419
112	0x3d60c0ba	0.0548713
113	0x3eb8b345	0.36074272
114	0x3ea623ce	0.32449192
115	0x3d20e782	0.039283283
116	0x3cb33af4	0.021878697
117	0x3e34a856	0.1764234
118	0x3df87b0c	0.12132844
119	0x3ce1c67d	0.027560467
120	0xbd72df5b	-0.05929504
121	0x3f53609a	0.8256928
122	0x3f78cedd	0.9719065
123	0xbd4c0c93	-0.04981668
124	0x3d360646	0.044439577
125	0x3c869d94	0.016432561
126	0x3cdf6fe6	0.027275037
127	0x3d6294af	0.055317577
128	0x3de59216	0.11209504
129	0xbcd39f7f	-0.02583289
130	0xbc97afd5	-0.01851646
131	0x3e138210	0.14405084
132	0x3e65e64a	0.2245113
133	0xb791ba0e	-1.7371985e-05
134	0xb78cdd37	-1.6792312e-05
135	0x3e652660	0.2237792
136	0x3de29aea	0.11064704
137	0x3c0f4b5b	0.0087459935
138	0xb7279378	-9.988311e-06
139	0x3ddfa211	0.109195836
140	0x3dab859f	0.083750956
141	0x37506416	1.2421069e-05
142	0x369d65ac	4.690801e-06
143	0x3dc2c6e3	0.09510591
144	0x3cb15652	0.021647606
145	0xbc00bc53	-0.0078574
146	0x3c0cbb8d	0.0085896375
147	0x3d27970c	0.040915534
148	0xbe6a09f2	-0.22855356
149	0x3f153e81	0.582985
150	0x3f05ec57	0.5231375
151	0xbe7af537	-0.24507605
152	0xbc84fc95	-0.016233722
153	0x3e3be3c3	0.18348603
154	0x3e193b79	0.14964093
155	0xbd024b92	-0.03181035
156	0x3e827725	0.25481525
157	0x3cb0a5f7	0.021563513
158	0x3cdea341	0.027177455
159	0x3e7bd2c2	0.24592116
160	0xbc3e5b2c	-0.011618417
161	0x3d6d2deb	0.05790512
162	0x3d164c9f	0.036694165
163	0xbca4d324	-0.020120211
164	0x3d2b74cf	0.041859444
165	0x3791b222	1.7368297e-05
166	0x358014a1	9.542747e-07
167	0x3d141305	0.03615095
168	0xbbf2e609	-0.0074126762
169	0x3c5db2ca	0.013531396
170	0x3c1664f5	0.0091793435
171	0xbc240015	-0.010009785
172	0xbcf3d5cf	-0.029765038
173	0x3e5bcfa3	0.21465926
174	0x3e6954f4	0.22786313
175	0xbd3d575b	-0.046225887
176	0xbc7dfb7a	-0.015501851
177	0x3e9b2185	0.3029901
178	0x3eab7a79	0.33491877
179	0xbcd373a6	-0.025811981
180	0xbd1f206e	-0.038849287
181	0x3eceb557	0.40372726
182	0x3ec0d8ca	0.37665397
183	0xbd50fefe	-0.05102443
184	0x3be93445	0.0071168267
185	0x3d86bb8e	0.06578742
186	0x3ca08b39	0.019597637
187	0xbc8088e8	-0.015690282
188	0xbcfc5638	-0.030802831
189	0x3d7abe76	0.061216794
190	0x3cdd70e3	0.027031368
191	0xbd30575d	-0.043052066
192	0xbcb74446	-0.022371422
193	0x3e277f0e	0.16357061
194	0x3e794fac	0.24346799
195	0xbc9646e8	-0.018344358
196	0x3e0ddf83	0.13854794
197	0xbd20475b	-0.03913055
198	0xbc6c1f6a	-0.014411787
199	0x3e05df66	0.13073501
200	0x3c81d18b	0.015846988
201	0xb6cc82b2	-6.0948887e-06
202	0x36d6096b	6.3787934e-06
203	0x3c5558e5	0.013021682
204	0xbce411ba	-0.027840484
205	0x3e4408ac	0.19143933
206	0x3e722175	0.23645575
207	0xbd1c30ff	-0.038132664
208	0x3eb5a4b2	0.35477215
209	0x3cb8c209	0.02255346
210	0x3cc406ce	0.023929026
211	0x3ec21465	0.37906185
212	0xbc334df5	-0.010943879
213	0x3e4dcc53	0.20097475
214	0x3e8867bd	0.26641646
215	0x3c837a15	0.016049424
216	0x3deb3f70	0.11486709
217	0x3d0f1084	0.03492786
218	0x3cc4b77e	0.024013277
219	0x3de0208d	0.109437086
220	0xbd4a301a	-0.04936228
221	0x3e33c17f	0.17554282
222	0x3e130597	0.14357601
223	0xbcfc5df3	-0.030806517
224	0xbd4e607d	-0.050384987
225	0x3e698d85	0.22807892
226	0x3e86fd7e	0.26365274
227	0xbd2fa7e7	-0.042884734
228	0xbd9a8e45	-0.07546667
229	0x3e80d078	0.2515905
230	0x3e696332	0.22791746
231	0xbd8ed8ec	-0.06974968
232	0x3d1a04d9	0.03760228
233	0x3e0b170a	0.13583007
234	0x3dd199bc	0.10234401
235	0xbbcb3c9b	-0.006202293
236	0xbe9f2448	-0.31082368
237	0x3e99040a	0.29885894
238	0x3e073061	0.13202049
239	0xbe6cdfa0	-0.23132181
240	0xbbb03dfc	-0.005378483
241	0x3dbe2cca	0.092858866
242	0x3d5bcb29	0.053660545
243	0xbc898c3c	-0.016790502
244	0x3d8183e4	0.06323984
245	0x3d408877	0.047005143
246	0x3cfdab15	0.030965367
247	0x3d687ff4	0.05676265
248	0xbccc0393	-0.024904048
249	0x3e8be6df	0.27324578
250	0x3e8d510d	0.276009
251	0xbd309528	-0.043110996
252	0xbda44b58	-0.08022183
253	0x3f35796a	0.7088839
254	0x3f4ed36c	0.80791354
255	0xbddf902f	-0.10916173

gc1.bias f4 [4]
0	0x3cdb62cf	0.026780514
1	0xbf39c54a	-0.72566664
2	0xbf80b7e9	-1.0056125
3	0x3ca2b969	0.019863801

gc2.weight f4 [4, 2]
0	0x40513c1c	3.2692938
1	0xc04d2bd8	-3.205801
2	0xbf80524d	-1.0025116
3	0x3fbb704e	1.4643648
4	0xbfca3ed4	-1.5800424
5	0x3fd10178	1.6328573
6	0x4057c658	3.371481
7	0xc0521203	-3.2823493

gc2.bias f4 [2]
0	0x3e1085b5	0.14113505
1	0xbf3d9211	-0.74051005
